이종호교수님/실습6/best_model.pth (torch, 132661 bytes, 10 tensors)

model.0.weight f4 [16, 1, 3, 3]
-0.19719282 0.11471177 -0.012623184 0.07097608 0.13799253 -0.18465471 0.053434856 0.1525055
-0.08095787 -0.30797547 0.04524422 -0.061057772 0.28110388 -0.07188946 0.05011047 -0.19437864
0.0038659065 0.15409385 0.22712637 -0.07073192 -0.41993958 -0.3237684 0.2842161 -0.14407705
0.031592224 -0.30215353 -0.33318383 -0.02081277 0.22094895 -0.16343397 -0.042003714 -0.15154243
-0.20313257 -0.4216688 -0.22438398 0.2041169 -0.26848108 -0.18879886 0.106618635 0.16607417
0.062339686 0.14748898 0.13869125 0.00081239955 -0.14015397 0.07711018 0.27433053 -0.18893814
-0.18325529 -0.30567345 -0.2435833 -0.4123643 0.04868193 0.0668761 0.142951 0.23361549
-0.038472056 -0.2254992 0.047528256 0.07445741 0.005102974 -0.123332456 -0.19458926 -0.20202486
0.20847657 -0.037301023 -0.07003155 -0.39360714 -0.20690338 0.09464163 -0.1537248 0.13583755
0.14780706 -0.08355502 -0.02492331 -0.07247163 0.0017504577 0.11912822 -0.094811834 0.092952006
0.0010358089 0.09408065 0.084907085 -0.18203133 0.015067391 0.12997344 0.16006626 0.1147478
-0.17786618 -0.16430658 0.16553387 -0.08150817 -0.3380818 -0.031570073 0.13621807 -0.20945206
-0.3014888 0.12186425 -0.123198844 0.12567246 -0.36221766 -0.19398543 -0.058119923 0.124294825
0.31510064 -0.017545722 -0.08816456 -0.30690557 0.19714156 -0.061599154 -0.19348349 -0.1938838
-0.17604636 -0.38759792 -0.22662213 0.027199829 -0.17019533 -0.25322238 0.1813306 0.014072908
0.059652846 0.19258109 -0.10561262 0.15976118 -0.37923065 0.0011481495 -0.064196065 0.14959015
0.00320258 -0.11321981 0.23597747 0.02147838 -0.108519174 -0.24228834 0.21699439 -0.15073152
0.25807625 0.10515423 0.031391334 -0.30011016 0.17038408 0.07788615 -0.14731748 -0.09664895
00000000: eaec 49be 01ee ea3d 79d1 4ebc e85b 913d
00000010: ea4d 0d3e 2016 3dbe 82de 5a3d 672a 1c3e
00000020: 3dcd a5bd f6ae 9dbe 0152 393d b717 7abd
00000030: d9ec 8f3e c83a 93bd a340 4d3d 320b 47be
00000040: 265b 7d3b c7ca 1d3e d193 683e e6db 90bd
00000050: 5202 d7be f9c4 a5be c684 913e ef88 13be
00000060: d966 013d deb3 9abe 1297 aabe 8b7f aabc
00000070: 7140 623e 3c5b 27be 160c 2cbd f02d 1bbe
00000080: fc01 50be f9e4 d7be eac4 65be 0504 513e
00000090: 5a76 89be 7d54 41be df5a da3d 590f 2a3e
000000a0: e657 7f3d 5a07 173e 1405 0e3e 36f7 543a
000000b0: 8684 0fbe f1eb 9d3d 0d75 8c3e 0079 41be
000000c0: 46a7 3bbe 3b81 9cbe e76d 79be 6a21 d3be
000000d0: b466 473d 56f6 883d bf61 123e e638 6f3e
000000e0: e094 1dbd 43e9 66be fdac 423d 207d 983d
000000f0: d936 a73b ba95 fcbd 6842 47be 9bdf 4ebe
00000100: e27a 553e f5c8 18bd b46c 8fbd e086 c9be
00000110: 7bde 53be 79d3 c13d 096a 1dbe 0019 0b3e
00000120: bc5a 173e e51e abbd f82b ccbc 026c 94bd
00000130: 9d6f e53a 7ff9 f33d b52c c2bd 9f5d be3d
00000140: fbc3 873a 5bad c03d c4e3 ad3d 6c66 3abe
00000150: 38dd 763c c217 053e 69e8 233e e500 eb3d
00000160: 8d22 36be fc3f 28be b681 293e c1ed a6bd
00000170: 0f19 adbe 9f4f 01bd c07c 0b3e 9a7a 56be
00000180: bd5c 9abe f793 f93d ad4f fcbd 48b0 003e
00000190: 9874 b9be 1ea4 46be 280f 6ebd 498e fe3d
000001a0: df54 a13e 0cbc 8fbc 9f8f b4bd ba22 9dbe
000001b0: 7adf 493e 654f 7cbd 8920 46be 7a89 46be
000001c0: 7f45 34be 3c73 c6be a20f 68be 2dd2 de3c
000001d0: af47 2ebe 5da6 81be bbae 393e 0e92 663c
000001e0: 8b56 743d fa33 453e 6e4b d8bd 6f98 233e
000001f0: 852a c2be 817d 963a 3a79 83bd 292e 193e
00000200: 60e2 513b cadf e7bd 14a4 713e 6df3 af3c
00000210: 4d3f debd 6f1a 78be c733 5e3e 5d59 1abe
00000220: 9222 843e 1a5b d73d 3394 003d 0aa8 99be
00000230: 2a79 2e3e c682 9f3d 65da 16be e2ef c5bd

model.0.bias f4 [16]
0.14431202 -0.3610387 -0.036390763 -0.09314323 0.13075356 -0.1992885 0.069151916 0.098225296
-0.106042005 -0.34749955 -0.20679076 -0.36756915 -0.13811232 0.08381228 -0.23363711 0.03110527
00000000: 88c6 133e 11da b8be 7b0e 15bd e1c1 bebd
00000010: 43e4 053e 4912 4cbe 859f 8d3d 582a c93d
00000020: 8d2c d9bd 76eb b1be f5c0 53be 0632 bcbe
00000030: 516d 0dbe c6a5 ab3d 913e 6fbe 7bd0 fe3c

model.2.weight f4 [16, 16, 3, 3]
0.12459719 -0.018928716 -0.06234924 -0.017121132 0.014625692 -0.04110891 0.054115146 -0.014856623
-0.004313692 0.08833462 -0.042077657 -0.046597145 -0.07234512 0.0039576855 0.07322171 -0.00094207807
-0.05972539 0.06587102 -0.027307633 -0.0021830238 0.10223554 -0.03417752 -0.12613678 0.03627732
-0.22647394 -0.056617193 -0.12583458 -0.18008287 -0.20897613 0.121604584 0.012238273 -0.054341596
0.018266056 -0.008598359 0.04290216 -0.19271977 -0.00580185 -0.04345196 -0.05781179 -0.03657034
-0.02752881 0.103745215 0.060724314 0.014545658 0.113355935 0.077916354 -0.053360835 0.16290891
-0.076197 -0.19049051 -0.13374905 -0.123474546 -0.0792602 -0.19616993 -0.09077446 -0.05945049
0.06598259 -0.17017186 -0.07121416 -0.13372368 0.052917942 0.13585688 -0.00038858815 -0.19083779
-0.09835469 0.23901007 -0.03861931 -0.043662455 -0.04079413 -0.040076807 -0.11183874 -0.043890163
-0.082014516 -0.13168238 -0.025910884 -0.0056550708 0.044743024 -0.008974731 0.014069362 0.03690588
0.07736732 0.03436053 -0.062191885 -0.20351875 0.07473815 -0.06791979 -0.10993624 -0.019618135
0.07677217 0.053881116 0.026438504 -0.09936589 -0.03306319 -0.1051697 0.14777918 -0.036909495
-0.15966621 -0.017300507 0.0022830518 -0.01715812 -0.03216216 -0.082691684 0.08239575 -0.07299544
0.05599001 0.11580814 0.02303459 -0.018558297 -0.06283523 -0.0030880475 -0.0759674 -0.070188954
-0.24431504 -0.09161687 -0.089305684 -0.22183496 -0.27532896 0.017452242 0.10561966 -0.04396982
-0.016139116 -0.15375775 0.057784908 0.014273125 0.015846238 0.06094176 -0.06609469 -0.1233577
-0.08577084 0.0981173 -0.11141721 -0.29780933 0.03261689 0.08884062 0.004129539 -0.055790287
0.10010773 0.07577749 -0.1342812 -0.16668361 -0.092981145 0.08955973 0.013838822 -0.029053293
0.0017485353 0.03601942 -0.079357564 -0.115339495 -0.024580132 -0.054182343 -0.0857066 0.062111575
-0.043767862 0.07697273 -0.005606578 0.009807546 0.028015817 -0.15396793 -0.1165839 -0.085438125
-0.049356632 0.058795836 -0.11077203 0.0075761983 -0.027518379 0.06734621 0.24641727 -0.040232167
-0.10767405 0.0074672205 0.060834996 0.04907792 -0.080955006 -0.11171753 -0.09755991 0.03685212
-0.034867376 -0.08872547 0.07242515 0.041502826 -0.06704911 -0.059343163 -0.0064525865 -0.15997918
-0.063954055 -0.086886905 -0.042130135 -0.10376553 -0.0863329 -0.027827326 0.019524764 -0.050577905
-0.14185129 0.074212514 -0.1397901 -0.046006802 0.0900543 0.069850266 -0.09081831 -0.012539918
-0.04167013 0.07414516 0.0075845537 -0.11997797 0.026455395 0.08483696 -0.0038674702 -0.10873033
-0.07759087 0.02481436 -0.17833519 -0.11378695 0.07659163 -0.0026196323 0.029283024 -0.013697284
0.00032944948 -0.066565745 -0.053720742 -0.041545205 -0.04701142 -0.12575093 -0.073981546 -0.05915813
-0.07866622 -0.021299172 -0.024149032 0.020450981 -0.024618216 -0.078860134 0.04390154 -0.08637561
-0.009680812 -0.05851604 -0.07204916 0.15233515 -0.083269395 -0.0154138515 0.23777437 0.10645514
-0.06794638 0.065094635 0.14045799 -0.13791154 -0.033698216 -0.16670829 -0.19545496 -0.12838064
-0.013999708 0.01947776 -0.11591595 0.06516298 -0.13656428 -0.11208275 -0.19287549 -0.13228706
00000000: d02c ff3d 6510 9bbc eb61 7fbd 9e41 8cbc
00000010: 99a0 6f3c d161 28bd d8a7 5d3d 3169 73bc
00000020: df59 8dbb c8e8 b43d 9f59 2cbd a6dc 3ebd
00000030: ae29 94bd 79af 813b 44f5 953d caf5 76ba
00000040: 9ca2 74bd 63e7 863d 42b4 dfbc 1011 0fbb
00000050: de60 d13d bafd 0bbd 002a 01be 8797 143d
00000060: c9e8 67be 6ee7 67bd c8da 00be a567 38be
00000070: d7fd 55be d30b f93d 0a83 483c 4b95 5ebd
00000080: b2a2 953c 22e0 0cbc 2dba 2f3d 5558 45be
00000090: 721d bebb affa 31bd 0ecc 6cbd c8ca 15bd
000000a0: 1984 e1bc 5f78 d43d 0fba 783d e950 6e3c
000000b0: 2827 e83d 9c92 9f3d e490 5abd 98d1 263e
000000c0: 2c0d 9cbd f20f 43be 83f5 08be 39e0 fcbd
000000d0: 2c53 a2bd c5e0 48be f6e7 b9bd 5b82 73bd
000000e0: e121 873d 8841 2ebe bbd8 91bd dcee 08be
000000f0: 7cc0 583d 111e 0b3e 6bbb cbb9 fb6a 43be
00000100: 2f6e c9bd 0ebf 743e 482f 1ebd 67d7 32bd
00000110: bf17 27bd 9427 24bd b60b e5bd 2cc6 33bd
00000120: 3af7 a7bd bfd7 06be 1043 d4bc 2c4e b9bb
00000130: 7644 373d c00a 13bc 2e83 663c 9f2a 173d
00000140: c272 9e3d a1bd 0c3d ebbc 7ebd 3867 50be
00000150: 5110 993d 8819 8bbd 4026 e1bd 36b6 a0bc
00000160: ba3a 9d3d 72b2 5c3d 9095 d83c 5880 cbbd
00000170: 446d 07bd 3663 d7bd 6d53 173e 692e 17bd
00000180: 8a7f 23be cbb9 8dbc 419f 153b 308f 8cbc
00000190: 78bc 03bd 425a a9bd 1abf a83d a27e 95bd
000001a0: c855 653d d12c ed3d 09b3 bc3c 9207 98bc
000001b0: c2af 80bd d760 4abb cc94 9bbd 3abf 8fbd
000001c0: b92d 7abe a0a1 bbbd e6e5 b6bd b428 63be
000001d0: ebf7 8cbe 01f8 8e3c 1f4f d83d b319 34bd
000001e0: 2e36 84bc ac72 1dbe deaf 6c3d d3d9 693c
000001f0: f8cf 813c 119e 793d a75c 87bd f6a2 fcbd
00000200: 9fa8 afbd b9f1 c83d b52e e4bd 777a 98be
00000210: 4a99 053d 12f2 b53d 1551 873b 5b84 64bd
00000220: 4805 cd3d 3b31 9b3d 0381 09be 1caf 2abe
00000230: e66c bebd 176b b73d 3abc 623c 2c01 eebc
00000240: 1c2f e53a 1989 133d 3886 a2bd 1d37 ecbd
00000250: 465c c9bc 4eee 5dbd f186 afbd b568 7e3d
00000260: ee45 33bd e1a3 9d3d 63b7 b7bb d4af 203c
00000270: 6d81 e53c c5a9 1dbe 8ac3 eebd 2ffa aebd
00000280: 2e2a 4abd e7d3 703d 72dc e2bd c241 f83b
00000290: 396e e1bc cfec 893d cf54 7c3e 7cca 24bd
000002a0: 3684 dcbd 96af f43b 1e2e 793d ee05 493d
000002b0: bdcb a5bd 29cc e4bd 7dcd c7bd 40f2 163d
000002c0: 18d1 0ebd b3b5 b5bd a353 943d defe 293d
000002d0: 0b51 89bd d111 73bd 3870 d3bb 95d1 23be
000002e0: 58fa 82bd c3f1 b1bd a690 2cbd 0683 d4bd
000002f0: 4ecf b0bd 22f6 e3bc 66f2 9f3c c72a 4fbd
00000300: 7741 11be bbfc 973d 2325 0fbe a171 3cbd
00000310: 646e b83d a80d 8f3d f3fe b9bd 3a74 4dbc
00000320: 4cae 2abd 6bd9 973d d987 f83b 03b7 f5bd
00000330: fcb8 d83c 00bf ad3d 6275 7dbb 02ae debd
00000340: f6e7 9ebd 7c47 cb3c 809d 36be 2209 e9bd
00000350: 13dc 9c3d 23ae 2bbb f4e2 ef3c 936a 60bc
00000360: f6b9 ac39 9f53 88bd 480a 5cbd 4e2b 2abd
00000370: 0c8f 40bd dac4 00be a383 97bd cc4f 72bd
00000380: c11b a1bd 9a7b aebc 31d4 c5bc d188 a73c
00000390: 24ac c9bc 6c81 a1bd 1ad2 333d b2e5 b0bd
000003a0: 459c 1ebc 84ae 6fbd 838e 93bd bffd 1b3e
000003b0: 2589 aabd 618a 7cbc 207b 733e 2705 da3d
000003c0: 7927 8bbd 5650 853d 38d4 0f3e af38 0dbe
000003d0: 2407 0abd 94b5 2abe 5825 48be 3776 03be
000003e0: 085f 65bc d38f 9f3c 5765 edbd 2b74 853d
000003f0: 82d7 0bbe a48b e5bd 2781 45be 4276 07be

model.2.bias f4 [16]
-0.091403 -0.07807637 -0.10949462 -0.059589718 0.03552653 -0.07618268 0.040739052 0.024857512
-0.05405134 -0.09453981 -0.11995938 0.11248279 0.0464242 -0.039106816 0.030918078 -0.051544715
00000000: 7f31 bbbd 81e6 9fbd b73e e0bd 5914 74bd
00000010: 4484 113d aa05 9cbd fedd 263d fba1 cb3c
00000020: f064 5dbd 179e c1bd 43ad f5bd 615d e63d
00000030: 4d27 3e3d 782e 20bd e947 fd3c 8d20 53bd

model.5.weight f4 [32, 16, 3, 3]
-0.14897245 -0.12182704 -0.0037699929 0.15382157 0.10199816 0.008103976 0.12320863 0.04670418
-0.11155801 -0.06911623 -0.08732581 -0.036017157 -0.030564059 -0.008374446 -0.15611589 0.018458659
-0.10426418 -0.04688111 -0.09014893 -0.14889875 -0.0108713815 0.0107585555 -0.14923742 0.033576358
-0.01598953 0.010046696 0.022821989 0.014900622 0.046045482 0.021734444 -0.022263713 -0.008318805
-0.054583386 -0.049357798 -0.18600999 -0.14487852 -0.13928382 -0.08733867 -0.04621179 -0.15289758
-0.1051221 -0.14698534 -0.04589646 0.011647789 -0.06741943 0.021135826 -0.0302131 0.02796477
0.008610162 0.042937733 0.04390708 -0.049226053 0.012904802 0.0059719793 0.105011 0.034036823
0.11398771 -0.10044858 -0.072456434 -0.014191474 -0.06772351 -0.044326935 -0.060972635 0.1855123
-0.08449735 -0.0262771 -0.05341002 -0.21185516 0.042928986 -0.30719048 -0.16133827 0.032181755
-0.082675576 -0.061804697 0.06776787 0.1486476 -0.044319976 -0.058998764 -0.02388988 -0.07536909
-0.15380742 -0.019915301 -0.0059606186 0.22663571 0.03266824 0.10242467 -0.048621796 -0.1648161
-0.059939716 -0.06544047 0.072068915 0.16131935 -0.0037832297 -0.10482998 -0.08150861 -0.114884615
-0.22809061 -0.11669711 -0.07195176 -0.00725134 -0.13452213 -0.06784715 -0.05126214 -0.014134884
-0.0046234536 0.02655347 0.044909686 -0.19311559 0.13400199 -0.01878635 -0.049511638 0.028442742
0.052358553 -0.0990445 0.016796283 -0.20814449 -0.11534354 -0.06543529 -0.10068175 0.0682046
-0.09154344 0.026887903 0.07199731 0.088358946 0.078879036 0.16644609 0.018462548 -0.08444633
-0.021281168 -0.123687685 -0.11865887 -0.20367181 0.11893314 -0.0013233593 0.05394398 0.10746753
-0.09839273 -0.14858927 -0.0460078 0.0064019514 -0.05490236 -0.006760747 0.012093459 -0.018045906
0.032567218 0.08715867 0.037150934 -0.069046296 -0.10150777 -0.025394086 -0.023686169 -0.039108504
-0.1689028 -0.03220385 0.07735755 -0.0018656128 0.024656992 -0.08803671 0.022212626 -0.12989463
-0.08291742 0.087811805 -0.10111257 -0.08274126 -0.03555397 0.081047945 0.024783656 -0.10859251
0.06763374 0.034128565 -0.11046704 0.0035552268 0.007208395 -0.09637137 0.06991652 -0.030295089
0.020722453 0.032087155 0.05359678 -0.22718202 0.0072624097 -0.11607069 -0.021910625 -0.0726142
-0.029412046 -0.09415983 -0.07361885 0.07640003 -0.21813926 0.064805165 -0.010735316 -0.04083193
-0.12449936 0.048665553 0.008632676 -0.061487105 -0.054462146 -0.13246584 -0.116795175 -0.0024637503
-0.11387127 -0.016664365 -0.011195119 0.04457007 0.006275835 -0.04629914 0.11920561 -0.01534929
-0.087210536 -0.24283041 -0.011692278 -0.01229998 -0.11176026 -0.01584278 -0.11587013 -0.07957594
0.17912935 -0.06137893 0.114007756 0.063437216 -0.020188516 -0.035389844 0.15413609 0.08337243
-0.11577276 0.07801434 0.07319921 -0.015037784 -0.041114803 0.06593233 -0.054905336 0.004786944
-0.05251967 -0.09046273 -0.07875064 -0.15571961 -0.110019356 0.049431395 -0.10042443 -0.072004855
-0.014968351 -0.09940211 -0.11030516 0.037524544 0.029042056 0.053388823 0.11041377 -0.020527948
-0.08786606 -0.22367425 -0.063646235 -0.063872 0.096386366 -0.09939899 0.028817551 -0.12629978
00000000: 3c8c 18be 7580 f9bd fc11 77bb 6783 1d3e
00000010: 69e4 d03d 8ac6 043c ce54 fc3d e24c 3f3d
00000020: 8778 e4bd cf8c 8dbd e0d7 b2bd ba86 13bd
00000030: 7a61 fabc f934 09bc d8dc 1fbe 9d36 973c
00000040: 7588 d5bd 6806 40bd 01a0 b8bd ea78 18be
00000050: e11d 32bc a744 303c b2d1 18be 5d87 093d
00000060: 7afc 82bc e69a 243c 2ef5 ba3c bd21 743c
00000070: 309a 3c3d 6f0c b23c 6462 b6bc 994b 08bc
00000080: d492 5fbd 672b 4abd 6779 3ebe 095b 14be
00000090: 6ba0 0ebe 9ede b2bd 9348 3dbd 2f91 1cbe
000000a0: 414a d7bd 5383 16be edfd 3bbd 5ed6 3e3c
000000b0: 3313 8abd 0a25 ad3c 7781 f7bc 6016 e53c
000000c0: a311 0d3c 7adf 2f3d e9d7 333d 42a1 49bd
000000d0: aa6e 533c 98b0 c33b 0210 d73d 326a 0b3d
000000e0: 6372 e93d fcb7 cdbd 0a64 94bd 5b83 68bc
000000f0: a0b2 8abd 2990 35bd 71be 79bd f0f6 3d3e
00000100: f20c adbd 1343 d7bc 77c4 5abd 8ff0 58be
00000110: 4ed6 2f3d 1248 9dbe dc35 25be 04d1 033d
00000120: d051 a9bd ec26 7dbd e2c9 8a3d 1437 183e
00000130: dd88 35bd b0a8 71bd b6b4 c3bc 1c5b 9abd
00000140: b17f 1dbe 6a25 a3bc 4b51 c3bb 3113 683e
00000150: 22cf 053d 06c4 d13d a627 47bd 8dc5 28be
00000160: 5983 75bd a705 86bd de98 933d e630 253e
00000170: 10f0 77bb 1ab1 d6bd fced a6bd a048 ebbd
00000180: 9690 69be e5fe eebd 725b 93bd a69c edbb
00000190: 2bc0 09be 72f3 8abd 40f8 51bd 0096 67bc
000001a0: 5780 97bb aa86 d93c 38f3 373d 18c0 45be
000001b0: d137 093e d5e5 99bc b7cc 4abd c100 e93c
000001c0: ec75 563d d8d7 cabd 5c98 893c d423 55be
000001d0: 3c39 ecbd f002 86bd 3c32 cebd daae 8b3d
000001e0: 217b bbbd 0544 dc3c 5373 933d 89f5 b43d
000001f0: 558b a13d d870 2a3e c53e 973c 33f2 acbd
00000200: d855 aebc f84f fdbd 6c03 f3bd 588f 50be
00000210: 3893 f33d 9274 adba 5df4 5c3d f017 dc3d
00000220: 2182 c9bd c927 18be ad72 3cbd 76c7 d13b
00000230: 4ce1 60bd 4289 ddbb a523 463c 02d5 93bc
00000240: 3465 053d 3f80 b23d 942b 183d 2568 8dbd
00000250: 4ee3 cfbd 4207 d0bc 7f09 c2bc 3d30 20bd
00000260: dbf4 2cbe 2fe8 03bd a36d 9e3d 9487 f4ba
00000270: 76fd c93c 974c b4bd 41f7 b53c 1903 05be
00000280: 9cd0 a9bd add6 b33d 1b14 cfbd 4074 a9bd
00000290: 0aa1 11bd 77fc a53d 1807 cb3c c065 debd
000002a0: 8f83 8a3d 65ca 0b3d 8b3c e2bd cffe 683b
000002b0: 6634 ec3b 5a5e c5bd 6430 8f3d 682d f8bc
000002c0: 22c2 a93c d26d 033d 4c88 5b3d 67a2 68be
000002d0: 82f9 ed3b 78b6 edbd e97d b3bc c1b6 94bd
000002e0: 88f1 f0bc ded6 c0bd 7bc5 96bd 9e77 9c3d
000002f0: e65f 5fbe 92b8 843d 2ee3 2fbc 623f 27bd
00000300: 85f9 febd 8855 473d 1170 0d3c e7d9 7bbd
00000310: b313 5fbd 20a5 07be 4f32 efbd df76 21bb
00000320: 5735 e9bd b583 88bc bb6b 37bc 1b8f 363d
00000330: 85a5 cd3b 2ba4 3dbd 1222 f43d 977b 7bbc
00000340: 709b b2bd 89a8 78be f890 3fbc db85 49bc
00000350: 90e2 e4bd b8c8 81bc 524d edbd b6f8 a2bd
00000360: af6d 373e 7968 7bbd e67c e93d 5feb 813d
00000370: 6362 a5bc f1f4 10bd dad5 1d3e 2abf aa3d
00000380: 451a edbd fbc5 9f3d 78e9 953d 0a61 76bc
00000390: ff67 28bd 8807 873d 6be4 60bd ccdb 9c3b
000003a0: de1e 57bd 8644 b9bd 0448 a1bd f674 1fbe
000003b0: d451 e1bd 9378 4a3d 53ab cdbd 4877 93bd
000003c0: d13d 75bc 5593 cbbd ace7 e1bd 56b3 193d
000003d0: 9be9 ed3c 3dae 5a3d 9d20 e23d 3a2a a8bc
000003e0: 1ff3 b3bd dd0a 65be f558 82bd 53cf 82bd
000003f0: 3766 c53d b391 cbbd c912 ec3c bb54 01be

model.5.bias f4 [32]
-0.06589213 -0.06378821 0.047400516 -0.038775902 -0.01009682 -0.11107666 -0.014387156 0.049585506
-0.09072405 -0.017909475 -0.12207283 -0.13374539 0.004435633 -0.07093211 -0.06384945 0.0009820851
-0.083989896 -0.023147754 0.046431124 0.08771193 -0.1151705 -0.012002773 -0.0145047875 0.08098743
-0.09118801 0.18027651 0.06318034 -0.16414906 -0.12370415 0.05035474 0.13526267 0.045086686
00000000: 74f2 86bd 65a3 82bd 0b27 423d 7bd3 1ebd
00000010: 226d 25bc 297c e3bd 1bb8 6bbc 2c1a 4b3d
00000020: 88cd b9bd e4b6 92bc 5201 fabd 8df4 08be
00000030: c958 913b db44 91bd 80c3 82bd 4fb9 803a
00000040: e502 acbd 5ca0 bdbc 902e 3e3d 50a2 b33d
00000050: 83de ebbd 47a7 44bc 7da5 6dbc bddc a53d
00000060: c8c0 babd 689a 383e b264 813d b116 28be
00000070: 9a58 fdbd c640 4e3d 4c82 0a3e d1ac 383d

model.7.weight f4 [32, 32, 3, 3]
-0.029240895 -0.053809725 -0.10248573 0.039534993 -0.0067553213 0.062369134 0.1458777 -0.03918496
-0.051918007 -0.07319979 -0.067837484 -0.0018877808 -0.016301528 -0.024956077 -0.04646647 -0.0015673562
-0.052613128 -0.09680826 -0.10967708 -0.17503355 0.013696388 -0.08770681 -0.042481747 -0.093918994
0.04979406 0.04633442 -0.02259047 -0.021249449 -0.019754509 0.10383153 -0.10039059 0.012881459
0.01372141 0.0015927159 0.119003184 0.0013255603 0.035358265 -0.02960905 -0.11749156 0.041010506
0.04241227 0.061915144 0.079886764 -0.0016957566 -0.1895782 -0.1024335 -0.048744787 0.03653269
-0.027243635 0.0584194 -0.0090429075 0.009913263 -0.025581256 0.0062018395 0.030856242 -0.033499844
-0.077975914 0.053476665 0.04947343 0.010961426 0.045710284 -0.09100678 -0.12044869 -0.06740104
0.051906273 -0.027662968 0.005613661 -0.06823027 -0.05188245 -0.22159663 -0.1307571 0.022274453
0.006543719 -0.03561931 -0.009127901 0.11943627 0.07127063 -0.055941056 -0.07689737 0.012072444
-0.103088826 -0.14692204 -0.15595038 -0.1257512 -0.1879217 -0.0031329528 -0.023013854 -0.084475696
0.035455775 -0.06313101 -0.051349834 0.044296794 0.052413013 -0.11331587 0.064170964 -0.1062866
-0.05584333 -0.1666904 -0.14157245 -0.043765012 -0.033514835 -0.02345481 -0.010061983 -0.13671197
-0.09261251 0.008311645 -0.09432252 -0.082302965 -0.013118586 0.11158917 -0.038377788 -0.06980646
-0.008694124 0.03938707 0.067469485 0.05880977 -0.033390116 0.04059108 -0.04653332 0.044771668
-0.053524874 0.092053965 -0.011295614 -0.1591223 0.045008913 -0.024607893 -0.029895289 0.07157404
0.069279626 0.055841275 0.01926012 -0.10868699 0.039248034 -0.14538124 -0.015947452 0.0077391565
-0.019322788 -0.20987688 0.03575607 -0.016500875 -0.19991976 -0.05588537 -0.06740194 -0.034776017
-0.15031937 -0.10402265 -0.11345321 0.0053902185 0.14183342 0.06492496 0.08936154 -0.015405408
-0.10381884 -0.09063517 -0.12036037 -0.012236857 0.070494324 -0.09055431 -0.060223524 -0.06692651
-0.060598265 -0.11991338 0.10181706 -0.044973776 0.08853886 0.03599863 -0.09888941 0.10103258
0.006560375 -0.13624309 -0.07411781 -0.11544211 -0.022562781 0.02754555 -0.037694957 -0.28714103
0.044626314 -0.0038338301 0.05088332 0.12951636 -0.02520004 -0.07470849 0.028839957 -0.09119212
-0.094659984 -0.014337312 0.01401466 -0.066704266 -0.023230333 -0.101213984 0.10349151 0.010019342
-0.10538847 -0.066725224 -0.13988273 0.07838561 -0.038253646 0.06505042 -0.01538966 0.13235255
0.100451306 0.007993036 0.059946902 -0.05180121 -0.10220923 -0.075114556 -0.0077943383 0.07242795
0.024810769 -0.024942001 0.107707076 -0.087964214 -0.043629814 -0.14401302 -0.09185603 0.03888163
0.02886719 0.049117886 0.058859263 -0.09961577 -0.081989884 -0.20378898 -0.087440036 -0.10917903
-0.037932586 -0.121518895 -0.060679767 0.102192804 -0.06580925 0.05210598 0.100081876 -0.027796146
-0.17886676 -0.059817743 -0.049291566 -0.060209453 0.057558075 -0.07076668 -0.0044602784 -0.1027059
-0.08047314 -0.010185188 0.008949173 -0.14015931 -0.19479398 -0.041840382 -0.14469463 0.040203936
0.026128972 0.06493186 0.08089671 -0.17642462 0.092263095 0.0065725003 -0.047608595 -0.17571595
00000000: 9a8a efbc 9667 5cbd 0ae4 d1bd 72ef 213d
00000010: be5b ddbb c776 7f3d f760 153e 6980 20bd
00000020: faa7 54bd c6e9 95bd 61ee 8abd 6a6f f7ba
00000030: c88a 85bc b070 ccbc a053 3ebd bf6f cdba
00000040: dd80 57bd 6943 c6bd 609e e0bd ff3b 33be
00000050: d166 603c a19f b3bd 5701 2ebd 9a58 c0bd
00000060: dbf4 4b3d 29c9 3d3d a60f b9bc 5313 aebc
00000070: 35d4 a1bc a0a5 d43d 9599 cdbd c10c 533c
00000080: c4cf 603c adc2 d03a f1b7 f33d 6cbe ad3a
00000090: d4d3 103d ae8e f2bc 6a9f f0bd a2fa 273d
000000a0: 7db8 2d3d bc9a 7d3d ac9b a33d 2644 deba
000000b0: ca20 42be a8c8 d1bd 9da8 47bd 4da3 153d
000000c0: 0b2e dfbc 2e49 6f3d b428 14bc 3d6b 223c
000000d0: c88f d1bc cd38 cb3b 3bc6 fc3c 2237 09bd
000000e0: d6b1 9fbd 590a 5b3d a7a4 4a3d 8e97 333c
000000f0: b53a 3b3d c361 babd cead f6bd 8e09 8abd
00000100: ac9b 543d 739d e2bc cdf2 b73b 50bc 8bbd
00000110: b182 54bd 3aea 62be 30e5 05be ea78 b63c
00000120: b26c d63b 8ee5 11bd 318d 15bc 019b f43d
00000130: 56f6 913d 7322 65bd 5e7c 9dbd 80cb 453c
00000140: 3c20 d3bd bb72 16be 75b1 1fbe ecc4 00be
00000150: 8c6e 40be 3a52 4dbb 8d87 bcbc 9801 adbd
00000160: 133a 113d d54a 81bd 3454 52bd 8e70 353d
00000170: 07af 563d 2712 e8bd 116c 833d caac d9bd
00000180: fabb 64bd e3b0 2abe 5ef8 10be f142 33bd
00000190: da46 09bd 4d24 c0bc 04db 24bc 39fe 0bbe
000001a0: a1ab bdbd 912d 083c 2a2c c1bd 758e a8bd
000001b0: 56ef 56bc dd88 e43d 0732 1dbd b0f6 8ebd
000001c0: cd71 0ebc 5654 213d 712d 8a3d 83e2 703d
000001d0: 13c4 08bd d542 263d b999 3ebd 7f62 373d
000001e0: e63c 5bbd ca86 bc3d 3d11 39bc f5f0 22be
000001f0: 445b 383d 7e96 c9bc f7e6 f4bc 6995 923d
00000200: 7ae2 8d3d d2b9 643d 66c7 9d3c 4997 debd
00000210: 8cc2 203d d2de 14be 3ba4 82bc c098 fd3b
00000220: d34a 9ebc f7e9 56be f574 123d d82c 87bc
00000230: c4b7 4cbe 0fe8 64bd 070a 8abd 4c71 0ebd
00000240: 52ed 19be d409 d5bd 285a e8bd 6ea0 b03b
00000250: c83c 113e 61f7 843d 2f03 b73d f766 7cbc
00000260: f99e d4bd ef9e b9bd 7f7f f6bd 197d 48bc
00000270: 545f 903d 8a74 b9bd f1ac 76bd c410 89bd
00000280: e335 78bd 2595 f5bd 7685 d03d 6c36 38bd
00000290: dd53 b53d 4d73 133d 8886 cabd 2bea ce3d
000002a0: 6af8 d63b 4f83 0bbe 14cb 97bd ea6c ecbd
000002b0: 95d5 b8bc 35a7 e13c 0766 1abd 2604 93be
000002c0: 15ca 363d ff40 7bbb 076b 503d f09f 043e
000002d0: 5070 cebc c400 99bd c641 ec3c efc2 babd
000002e0: 18dd c1bd 0ce7 6abc bf9d 653c 3f9c 88bd
000002f0: 8a4d bebc 4749 cfbd 5bf3 d33d 2b28 243c
00000300: e9d5 d7bd 3ca7 88bd 6b3d 0fbe a288 a03d
00000310: dbaf 1cbd 2839 853d ea24 7cbc 6d87 073e
00000320: 6ab9 cd3d 39f5 023c e28a 753d 812d 54bd
00000330: 1353 d1bd a9d5 99bd a667 ffbb 1b55 943d
00000340: f43f cb3c 2b53 ccbc 8795 dc3d 9526 b4bd
00000350: 2db5 32bd 2678 13be 041f bcbd 5842 1f3d
00000360: e37a ec3c d62f 493d 6916 713d 5a03 ccbd
00000370: 50ea a7bd 0fae 50be c313 b3bd 4199 dfbd
00000380: 335f 1bbd e6de f8bd 598b 78bd 764a d13d
00000390: 00c7 86bd 156d 553d baf7 cc3d beb4 e3bc
000003a0: d928 37be 7303 75bd f4e5 49bd 309e 76bd
000003b0: 04c2 6b3d 1fee 90bd 8727 92bb 7957 d2bd
000003c0: 1acf a4bd c6df 26bc 8d9f 123c ec85 0fbe
000003d0: 1378 47be d260 2bbd d42a 14be e2ac 243d
000003e0: 6d0c d63c fffa 843d 2dad a53d a8a8 34be
000003f0: 6ff4 bc3d 215e d73b 3b01 43bd e2ee 33be

model.7.bias f4 [32]
-0.063766696 -0.02127375 -0.03037092 -0.058765113 -0.07634576 -0.022769239 0.0325054 0.0016085631
-0.029305475 0.022064213 -0.10216691 -0.15935431 -0.076171845 -0.09348529 -0.01996581 -0.015789896
0.021323264 0.07926802 -0.041799057 0.0035971033 -0.009567821 -0.034003347 -0.011389379 -0.06419121
-0.02244597 -0.061588857 -0.05808879 -0.12341781 0.03934979 -0.07024319 0.08964866 -0.055542007
00000000: 1d98 82bd 4a46 aebc 70cc f8bc b0b3 70bd
00000010: 2a5b 9cbd 8e86 babc 6224 053d 6cd6 d23a
00000020: 0912 f0bc 02c0 b43c e33c d1bd c72d 23be
00000030: fcff 9bbd 3775 bfbd 578f a3bc d059 81bc
00000040: 20ae ae3c 4657 a23d 7d35 2bbd 61bd 6b3b
00000050: 5ac2 1cbc 1847 0bbd 859a 3abc ae76 83bd
00000060: 9ce0 b7bc 9944 7cbd 83ee 6dbd 7ac2 fcbd
00000070: 3f2d 213d a9db 8fbd b799 b73d 0480 63bd

model.11.weight f4 [10, 1568]
0.083522506 0.036998753 -0.03405021 -0.01318146 -0.036119014 0.0104786465 0.01882819 -0.0039869533
-0.017600274 0.06401761 -0.05700287 0.039850954 -0.039563738 0.00046733028 0.07423413 -0.05227254
-0.12113976 0.07435285 0.0130559495 0.02297083 0.024481593 -0.116239995 -0.10209659 -0.057964776
-0.08098306 0.05560122 -0.03204477 -0.06585262 0.01077561 0.017904544 0.050015107 0.111508995
-0.010107989 -0.012060699 0.010750767 0.005942296 0.07204012 0.027088664 0.012232107 -0.063566215
-0.080792196 0.026033167 -0.0015998392 0.03605037 -0.04117189 0.032435227 0.027613532 -0.062094625
-0.0077790767 0.006575843 -0.0017182154 -0.009208973 0.015414233 0.04713876 -0.058579013 -0.020180563
-0.037540086 0.029130422 -0.019082395 0.07400571 -0.041496444 0.043090746 -0.05220988 0.08680924
0.040007513 0.03686057 0.04136343 0.04911154 -0.029251909 -0.033385422 0.046362586 0.02046571
-0.06779791 -0.09272192 0.00010365203 0.019262046 -0.021003922 0.033232078 0.069824204 0.0010349292
-0.039802566 -0.031717557 -0.10089692 0.004312719 0.008488189 -0.07294418 0.06374589 0.026657652
0.019864159 0.03234994 -0.019824017 0.01630077 0.00325756 -0.017780242 -0.005524556 -0.07557951
-0.021448206 -0.007642232 -0.056021582 -0.011698922 -0.041971136 -0.027385456 -0.011755207 0.044345718
-0.0064346837 0.053074636 -0.077721104 -0.0957587 0.0036376968 0.062490944 0.03597654 -0.042476185
-0.19436167 -0.0369356 -0.15984407 -0.08095743 -0.0073373015 -0.023048468 -0.009425705 0.016058322
-0.061654482 -0.22987564 -0.02980201 0.070786186 -0.069174565 -0.043592416 0.032946255 -0.004611061
-0.04012716 -0.030078897 0.025974795 -0.069792785 -0.077234864 0.0028872017 -0.0008313057 0.039485574
-0.003280602 0.020398233 -0.012281265 0.092070594 -0.04362749 0.060126875 0.0058732186 0.06707062
-0.10721697 -0.0017975932 -0.005065555 0.0072249305 -0.0011557713 0.005317791 -0.0046901405 0.011726691
-0.02821986 -0.01075144 -0.004184856 -0.017192954 0.0067691063 -0.011344088 -0.011072943 -0.026690926
-0.025522392 -0.020697678 -0.012598617 -0.0045522065 -0.017844884 0.03519584 0.012904763 -0.06895316
0.008469363 0.015030715 -0.013221216 -0.0071329433 -0.0094846925 -0.058513504 -0.08196552 0.00572238
-0.036456347 -0.05119239 -0.014768636 0.02306003 0.007940823 -0.017609322 -0.018529434 -0.018857611
-0.0049361354 0.010664439 0.012529353 0.04597244 0.051492654 0.026270205 -0.010186725 -0.0014888863
-0.08063878 0.053496208 0.031136055 0.0002990763 -0.08094963 -0.116757326 -0.0544091 0.014931277
-0.019613236 0.029290153 -0.002735559 -0.028934915 0.10484445 -0.08843895 0.13180135 0.021802127
0.041685726 -0.01651703 0.07045948 -0.10827156 0.08680028 -0.06391085 0.034391284 0.03949094
-0.10472091 0.025496572 -0.070013806 -0.03961027 -0.10612002 -0.045594703 0.062685095 -0.09201389
0.05980985 -0.029073758 -0.010976828 0.030381048 0.01434672 0.032349 -0.071635135 0.026951909
-0.09958176 -0.05610589 -0.05899988 -0.016330998 0.04576147 -0.08004891 -0.0060130334 0.011102294
0.13516502 -0.09455715 -0.2523295 -0.20475182 0.0026092622 0.022389365 -0.031912778 -0.09051862
0.026333155 -0.18464038 0.014845198 0.032755207 0.054103937 0.05867051 0.019636417 0.034286954
00000000: d90d ab3d 018c 173d 3c78 0bbd 0df7 57bc
00000010: 88f1 13bd a1ae 2b3c 943d 9a3c fda4 82bb
00000020: 732e 90bc aa1b 833d d77b 69bd c13a 233d
00000030: 960d 22bd 0204 f539 1008 983d bb1b 56bd
00000040: 1f18 f8bd 4f46 983d 9fe8 553c 522d bc3c
00000050: 9f8d c83c 3c0f eebd 0418 d1bd 796c 6dbd
00000060: 72da a5bd 1bbe 633d 6041 03bd bddd 86bd
00000070: 2f8c 303c 8dac 923c a4dc 4c3d d45e e43d
00000080: fb9b 25bc 3d9a 45bc fc23 303c 97b7 c23b
00000090: c589 933d 0ce9 dd3c 2d69 483c 012f 82bd
000000a0: 6176 a5bd 8243 d53c b2b1 d1ba 8ea9 133d
000000b0: dba3 28bd cdda 043d c635 e23c ef56 7ebd
000000c0: a0e7 febb 2b7a d73b be35 e1ba 3be1 16bc
000000d0: fb8b 7c3c 9314 413d 8cf0 6fbd b551 a5bc
000000e0: a2c3 19bd eca2 ee3c af52 9cbc 4e90 973d
000000f0: 2df8 29bd ec7f 303d 07da 55bd 0bc9 b13d
00000100: ebde 233d 1cfb 163d b36c 293d 2f29 493d
00000110: b3a1 efbc 27bf 08bd b2e6 3d3d b4a7 a73c
00000120: a1d9 8abd fde4 bdbd c35f d938 70cb 9d3c
00000130: 6b10 acbc 5c1e 083d feff 8e3d 76a6 873a
00000140: 0408 23bd 45ea 01bd 0ba3 cebd b651 8d3b
00000150: 0c12 0b3c c263 95bd 358d 823d 2661 da3c
00000160: 29ba a23c 5f81 043d fa65 a2bc 3189 853c
00000170: ca7c 553b dfa7 91bc 5607 b5bb 6ec9 9abd
00000180: 26b4 afbc b06b fabb e376 65bd d6ac 3fbc
00000190: ede9 2bbd 7757 e0bc e998 40bc dba3 353d
000001a0: 0ada d2bb ca64 593d 3e2c 9fbd 231d c4bd
000001b0: 6d66 6e3b 81f6 7f3d 235c 133d 82fb 2dbd
000001c0: bf06 47be c949 17bd 2aae 23be 02cd a5bd
000001d0: bf6d f0bb 24d0 bcbc 466e 1abc be8c 833c
000001e0: 6989 7cbd 8564 6bbe 5823 f4bc 59f8 903d
000001f0: 65ab 8dbd f68d 32bd a7f2 063d 6218 97bb
00000200: 605c 24bd 0568 f6bc 18c9 d43c 85ef 8ebd
00000210: 502d 9ebd 3537 3d3b fbeb 59ba a0bb 213d
00000220: 5eff 56bb 321a a73c 5c37 49bc 828f bc3d
00000230: bdb2 32bd 9947 763d 2174 c03b 525c 893d
00000240: 9294 dbbd 389d ebba f5fc a5bb 1cbf ec3b
00000250: 407d 97ba dd40 ae3b c0af 99bb 4f21 403c
00000260: 562d e7bc cf26 30bc 1e21 89bb 3dd8 8cbc
00000270: 61cf dd3b 8edc 39bc 4a6b 35bc eea6 dabc
00000280: 5614 d1bc 2d8e a9bc 6e6a 4ebc ad2a 95bb
00000290: 6f2f 92bc 8329 103d 806e 533c 5037 8dbd
000002a0: 15c3 0a3c 6343 763c cd9d 58bc 77bb e9bb
000002b0: af65 1bbc dbab 6fbd 8add a7bd cd82 bb3b
000002c0: 4053 15bd 1daf 51bd 26f8 71bc 63e8 bc3c
000002d0: 3a1a 023c 6d41 90bc 0acb 97bc 477b 9abc
000002e0: 4ebf a1bb e6b9 2e3c ea47 4d3c 994d 3c3d
000002f0: f6e9 523d 9d34 d73c 39e6 26bc bc26 c3ba
00000300: f225 a5bd d71e 5b3d 0a11 ff3c 57cd 9c39
00000310: ebc8 a5bd 771e efbd 14dc 5ebd 51a2 743c
00000320: f0ab a0bc e7f1 ef3c 1047 33bb ea08 edbc
00000330: b0b8 d63d 7b1f b5bd eff6 063e 609a b23c
00000340: a7be 2a3d b94e 87bc 0f4d 903d 7bbd ddbd
00000350: 58c4 b13d b1e3 82bd e0dd 0c3d 40c1 213d
00000360: eb77 d6bd 30de d03c 6663 8fbd 613e 22bd
00000370: 7455 d9bd 83c1 3abd 0b61 803d c771 bcbd
00000380: 2cfb 743d 172c eebc 27d8 33bc ade1 f83c
00000390: 810e 6b3c 6380 043d 71b5 92bd 40ca dc3c
000003a0: 86f1 cbbd 4acf 65bd dca9 71bd 96c8 85bc
000003b0: 6170 3b3d aff0 a3bd fb08 c5bb 65e6 353c
000003c0: b368 0a3e 2ea7 c1bd 5531 81be 76aa 51be
000003d0: 2800 2b3b e769 b73c f9b6 02bd d461 b9bd
000003e0: a1b8 d73c 5e12 3dbe 4639 733c 532a 063d
000003f0: 179c 5d3d 7d50 703d 8ddc a03c 7a70 0c3d

model.11.bias f4 [10]
0.038458128 0.15248759 -0.04673154 -0.031440035 -0.07465761 -0.023096813 -0.0045618694 0.006887159
-0.030237306 0.013934276
00000000: 4586 1d3d b525 1c3e 9269 3fbd 44c7 00bd
00000010: 17e6 98bd 8735 bdbc bc7b 95bb adad e13b
00000020: 3ab4 f7bc 974c 643c
