이종호교수님/실습6/best_model.pth (torch, 132661 bytes, 10 tensors)

model.0.weight f4 [16, 1, 3, 3]
000000 06 fb 83 be ea 02 aa 3d c5 1d b4 be 89 fb 5a 3e
       -0.25777453 0.08301337 -0.35178962 0.21385016
000010 40 60 81 be 70 8d 76 3e df c9 9c 3e f8 f1 20 be
       -0.25268745 0.24077392 0.30622765 -0.15717304
000020 88 a7 4e 3e 83 d2 84 3d 09 32 b7 3d 0d 61 9a be
       0.20181096 0.064854644 0.0894509 -0.3015217
000030 4c a5 8c be ae 9c 2f be bd 3a 56 3d 2b a4 34 3e
       -0.27469862 -0.17149612 0.05230211 0.1764075
000040 52 92 5e bd 5b 6c 24 3d db 44 1d be 34 a2 8d 3e
       -0.05433876 0.0401424 -0.15358298 0.27662814
000050 7c b6 d1 3d 28 cb 61 be 57 fd 97 bb 60 68 80 3e
       0.10239884 -0.22050154 -0.0046383548 0.25079632
000060 a4 68 a3 bd 87 ea 5a 3e 01 74 6c be 02 d0 a2 be
       -0.07978943 0.21378528 -0.23091127 -0.31799322
000070 67 8b 28 3e 01 37 dc bd 7c 65 ed bd f3 50 39 3e
       0.16459428 -0.10752679 -0.11591622 0.18097286
000080 0b 15 da bd 3d 1a 27 3e 67 1d 5a 3e 57 0a c8 be
       -0.10648545 0.16318603 0.21300279 -0.3907039
000090 d5 fc 40 be f6 82 12 3e ac 81 05 be 54 21 8b bd
       -0.18846448 0.1430777 -0.13037747 -0.06793466
0000a0 41 31 73 3d e8 c7 52 3e 95 f6 84 3e 83 22 de bd
       0.059373144 0.2058407 0.25969377 -0.10846426
0000b0 8a 9b bd bd 9b 22 24 3e 34 0e 57 3e 09 5e da bd
       -0.09258182 0.16028826 0.21001512 -0.10662467
0000c0 01 17 6b 3e fe 57 14 be b2 a1 ab be 06 86 ad bd
       0.22957994 -0.14486691 -0.335218 -0.084728286
0000d0 f4 e1 51 3e dc 5c 9e bd df 55 04 3e e9 e2 5e 3e
       0.2049635 -0.07732555 0.12923382 0.21766247
0000e0 bc c1 89 be 3e 78 06 be e7 ae e5 bc 5c ea 63 3e
       -0.2690562 -0.13131806 -0.028037501 0.2225737
0000f0 3e 38 78 3d 74 60 6a 3d 27 ff a7 be 8f 3f 9c bd
       0.06060051 0.05722089 -0.32811853 -0.0762931
000100 fa ff 6f 3e a0 11 57 3e 31 d7 c4 bd b8 b5 4d 3e
       0.23437491 0.21002817 -0.09611357 0.20088851
000110 64 be a5 be 50 ea 34 be ad c6 1c 3e df c5 27 3d
       -0.3237182 -0.17667508 0.15310164 0.04096019
000120 13 a7 bc 3d dd 4a 21 bd e9 9c a8 bd 4b ff 4f 3e
       0.092115544 -0.039378036 -0.08233053 0.2031223
000130 4d c7 23 bd d4 c3 9e be a0 ae 86 be 64 cb 8b be
       -0.03998499 -0.3100878 -0.26305103 -0.27303612
000140 98 00 88 3e 7a 5a 4a be 0b 3e e5 3d 1a 4b 9e be
       0.26562953 -0.19761077 0.111934744 -0.30916673
000150 d8 9b 80 bd 08 da 41 3e 1c 1f 8f 3e a9 5b 9e be
       -0.06279725 0.18930829 0.27953422 -0.30929306
000160 99 f8 df 3d 37 e3 e0 bd 41 1f 36 be a4 55 8d 3e
       0.10936088 -0.10980838 -0.1778536 0.276044
000170 fc 8c 96 3e 21 db 1f bd 3f c0 a5 be 8e 34 0d 3d
       0.29404438 -0.039027337 -0.32373235 0.03447395
000180 de 4b 98 3e f4 96 ae bd ea 4b c2 be 73 f0 5b 3d
       0.29745382 -0.08524886 -0.37948543 0.053696107
000190 90 b2 b5 3d f5 ab 48 3e 7a 2e a8 bd 26 67 14 bd
       0.08871949 0.19596846 -0.0821199 -0.036231183
0001a0 d5 27 bd be 07 49 7a 3e ae ac f3 bb a6 0c 8c be
       -0.36944452 0.2444192 -0.0074363565 -0.273534
0001b0 97 c1 1f be 55 ea ad be 4a 02 a5 be 02 83 04 3d
       -0.15601192 -0.33967844 -0.3222831 0.0323515
0001c0 39 76 88 3e 44 6b 93 be f3 75 af be d3 f5 25 3e
       0.26652697 -0.28792775 -0.34269676 0.16207056
0001d0 7e d0 63 3e 1b 40 94 be 6c 4b 08 be b7 da 40 3e
       0.22247502 -0.2895516 -0.13310021 0.18833433
0001e0 98 2d 1a be b5 ab 9e 3e 11 f9 83 be bc 41 a2 be
       -0.15056455 0.30990377 -0.2577596 -0.31690776
0001f0 44 c7 21 bd 55 02 09 3e e2 0c b4 bc 4d 68 98 be
       -0.039496675 0.13379796 -0.0219788 -0.29767075
000200 73 dd 66 be 25 12 8a be 3c da 80 be 2d 36 e3 bd
       -0.22545414 -0.26966968 -0.251665 -0.110943176
000210 65 b7 f4 be 17 d7 76 bd 16 93 63 3d 45 bc b9 bc
       -0.4779617 -0.06026372 0.055560194 -0.022672782
000220 a4 c7 03 bc d7 45 e7 3d 07 93 f8 bd 25 dc 3a be
       -0.0080432035 0.11292618 -0.12137418 -0.18248041
000230 d6 00 9d be 5b fd 92 ba 38 4f 86 3b f9 58 6f 3e
       -0.306647 -0.0011214422 0.004098799 0.23373784

model.0.bias f4 [16]
000000 0f b7 97 be 05 53 45 3d f1 bb 33 3e 7d 06 7b 3e
       -0.2963185 0.048174877 0.17552163 0.24514194
000010 03 43 47 be 10 d3 ba be 2d 85 a9 be 49 9a 25 be
       -0.19459157 -0.36489153 -0.33109418 -0.16172136
000020 c7 10 47 bc 96 72 cf bd 3c 3d 57 be 75 50 87 be
       -0.012149996 -0.101292774 -0.21019453 -0.2642857
000030 16 89 0f 3e dc 70 ab bd c4 95 5d 3e 74 09 b9 be
       0.14017138 -0.083711356 0.21639162 -0.36140025

model.2.weight f4 [16, 16, 3, 3]
000000 52 41 db 3d ae a0 ac bd 61 24 95 bd 41 e7 f0 3d
       0.10705818 -0.08429085 -0.07282329 0.11762858
000010 5b 3f 98 bd 00 06 14 be e7 67 12 3d 20 9e 14 bd
       -0.07433959 -0.14455414 0.03574362 -0.036283612
000020 d9 35 e5 bc 92 c2 c5 3c cc c0 99 bc e9 2b c3 3c
       -0.027979778 0.02414063 -0.01876869 0.023824649
000030 ed 92 b5 3b 68 2c 17 bd 80 8c 03 be 53 f4 90 3d
       0.0055411966 -0.036907583 -0.12846565 0.07077851
000040 11 56 c5 bc 53 44 bf bd f1 5b 83 bc a6 92 2a bc
       -0.024088891 -0.09339204 -0.016035052 -0.01041094
000050 b8 f7 02 bd 77 45 99 bd ed f2 d0 3b 2d a9 0f bd
       -0.031974524 -0.074839525 0.0063766153 -0.035073448
000060 61 7b a9 bc 44 2f 23 bd 33 be b8 bd 28 96 42 3c
       -0.020688714 -0.039839998 -0.090206526 0.01187662
000070 93 68 90 3c d6 32 10 bd db f1 46 3d 87 cc a9 bd
       0.01762799 -0.03520473 0.048570495 -0.082909636
000080 b5 ea 90 3b ba cf 33 bd a7 44 2a bd 5f 05 2a 3c
       0.0044225105 -0.043899275 -0.04156938 0.010377257
000090 c3 c3 2a 3d 85 ff 1c bd aa e5 0d be 61 3b 90 3d
       0.0416906 -0.03832962 -0.13857141 0.07042576
0000a0 62 ff 27 3d f7 47 a8 bd 38 5c d7 ba 56 3f 15 3d
       0.041015036 -0.08216851 -0.0016430682 0.036437355
0000b0 05 a2 17 be 5d 7d c8 bd 0c 7d 32 be cb f7 91 bd
       -0.148079 -0.09789536 -0.17430514 -0.07127341
0000c0 93 79 18 3d 5a e9 0a be 6a 21 0a bd 9e 9a 16 bd
       0.037225317 -0.13565579 -0.033723272 -0.03676855
0000d0 1e d9 02 be 09 95 5a 3c 15 f7 53 bd 4c 57 22 be
       -0.12778136 0.013341197 -0.051749308 -0.15853614
0000e0 46 9f 6f bd 6e c0 8e bd a6 a5 f7 bc 0f 38 73 bd
       -0.058501504 -0.06970297 -0.030230355 -0.059379634
0000f0 f3 05 ed 3d 97 81 c0 bc bd bb fd 3c fd bd 16 bd
       0.115734 -0.023499293 0.03097331 -0.03680228
000100 53 2f 69 bd da 27 98 bb ef 75 06 be 9e dd f5 bd
       -0.056929898 -0.0046434226 -0.13130926 -0.12005161
000110 fb f1 c7 bd 65 df d5 bd 98 5d 94 bd 07 ec eb bb
       -0.09762951 -0.10443 -0.07244414 -0.0071997675
000120 b0 94 1d be 06 31 ba bd 81 a0 11 3e 10 95 0e 3d
       -0.15388751 -0.09091382 0.14221384 0.034810126
000130 f3 07 30 bc fa 65 6b 3d 1b 2a 0b bd ee 13 e2 bd
       -0.010744083 0.0574703 -0.0339757 -0.110389575
000140 46 08 c9 bd e5 00 b9 bd 1c 2a 93 3c 01 b4 0d bc
       -0.09816031 -0.09033374 0.017964415 -0.008648873
000150 2c 88 ee bc b0 27 ed 3c c4 ca 9b bd eb e8 b7 b8
       -0.029117666 0.028949589 -0.07607034 -8.769504e-05
000160 3c 22 0d 3d 81 49 cd bc 13 cf 07 3d d4 eb 20 3d
       0.034456477 -0.025059463 0.033156466 0.039287403
000170 af 4a c5 bc 41 98 13 3e 2e cb c5 bd d2 72 39 be
       -0.024083463 0.14413549 -0.09657894 -0.18110207
000180 f5 f7 a3 3c 33 07 7d bc d0 57 4a 3d 92 d5 52 bd
       0.020015696 -0.015443611 0.04940015 -0.051473208
000190 e6 3c 8b bc ba 1a 0b 3d c4 28 ec 3d 2e 6d ae 3b
       -0.016996812 0.033961035 0.11531213 0.005323074
0001a0 ae bf a6 bc 3b ac f5 3d db 94 52 3d 08 96 b6 bd
       -0.020355072 0.11995741 0.05141149 -0.08915335
0001b0 7e 51 34 bd d5 28 6d 3c 5b de a4 bd 51 33 06 be
       -0.04402303 0.014475067 -0.080502234 -0.13105513
0001c0 8e 0f 46 bd f3 1d c2 bb 9b 6b 4b 3c 30 91 16 3d
       -0.048354678 -0.0059239804 0.012415792 0.036759555
0001d0 a7 02 25 bd 57 ce 1e bd 31 1b 06 bc 13 ca 0e bd
       -0.040285733 -0.038771 -0.008185194 -0.03486068
0001e0 e3 8f 67 bd d8 48 10 bd 9a 79 6f 3d 17 ca 0d bd
       -0.056533705 -0.03522572 0.058465578 -0.034616556
0001f0 81 de d7 3d a2 6b e1 bc b3 88 aa bc 2f 8b 44 3d
       0.10540486 -0.027517144 -0.020817136 0.0479843
000200 a2 28 a8 3d b0 b0 b4 bd 2c ac 47 3d 3a 7c 0c bd
       0.08210875 -0.08822763 0.04874818 -0.03429816
000210 9a d4 a3 3d 77 22 f8 3c e5 0f bc bc 6d 70 1f 3c
       0.07999535 0.030289872 -0.022956798 0.009731394
000220 a4 27 a4 bc 62 a5 8b 3b 83 df fb bd d4 fb 01 bd
       -0.020038433 0.0042616585 -0.12298491 -0.031734303
000230 b5 c2 c4 bc ef 4d c5 bc 69 23 24 bd e1 bd 98 bc
       -0.024018625 -0.024085013 -0.040072832 -0.018645229
000240 be dc cd bd cb 86 67 bd a0 01 ad bc fc 65 d0 bd
       -0.10051869 -0.056525033 -0.021118939 -0.10175702
000250 82 9a 21 3d 5d 82 69 bd 70 74 b6 3c 1e 05 5e bc
       0.03945399 -0.05700909 0.022272319 -0.013551025
000260 32 24 66 bd 7d ff b6 3d 11 e5 9a bd 2e db 2e bc
       -0.056186862 0.08935449 -0.07563222 -0.010672374
000270 94 d5 0f bc a9 3e 9b 3d a7 41 0b 3d 13 61 6e 3d
       -0.008778948 0.07580311 0.033998158 0.058198046
000280 5c d3 0f 3d d3 5e c3 bd d1 8b ad 3b b5 5b 76 bd
       0.035113677 -0.09539571 0.0052962084 -0.060146052
000290 bd 40 53 bc e5 30 96 bd a7 9d 1a be ba a0 57 bd
       -0.012893853 -0.07333545 -0.15099202 -0.052643515
0002a0 3e ab a5 3d d8 5a 87 bd fc 8a 0a bd f6 26 fc bc
       0.080893025 -0.06609124 -0.033823952 -0.030780297
0002b0 00 cf 2e bd 4a 49 e4 3d 63 3b 5c bc fc b7 bd 3b
       -0.04267788 0.11146791 -0.013441893 0.005789755
0002c0 4f 75 4e bb 87 dd 9e 3d b1 79 ae 3d 23 71 1d be
       -0.0031503027 0.07757097 0.085193045 -0.1537519
0002d0 e4 a4 13 be d3 b4 0b be e2 63 9f bc 2d 20 b1 bd
       -0.1441837 -0.13643198 -0.019456808 -0.08648715
0002e0 2f b8 f3 bc 77 02 b1 3c f4 a7 7c 3d 77 74 28 3d
       -0.029750912 0.02160762 0.06168361 0.041126695
0002f0 a9 69 0d be d5 d8 37 3d 6a 1e 71 bd 3c 37 8e bd
       -0.13809837 0.04488452 -0.058866896 -0.06944129
000300 45 82 78 bd 91 01 d2 bc 7d 31 e0 bd ea 9b ea bc
       -0.06067111 -0.025635513 -0.10946939 -0.028638799
000310 cb 67 c8 bd 3d 76 99 bd de 29 9b 3d 9d 06 a0 3c
       -0.09785422 -0.07493255 0.07576345 0.019534403
000320 5b fe 52 3d 09 0b 7c bd 8f 20 6b 3d e4 c4 87 bc
       0.051512104 -0.06153396 0.057404097 -0.016573377
000330 93 10 2f 3d 1c ca 0a bd b6 f9 5b be 36 f3 c6 bb
       0.042740416 -0.033884153 -0.21481976 -0.0060714735
000340 3a 92 0c 3d 97 5c 4e bd 39 5e 7f bd 7c 7e c1 bd
       0.03431914 -0.05038127 -0.062345717 -0.09447953
000350 7c b6 85 bd af de e7 3a 69 1d da bd e3 df 2a be
       -0.06528947 0.0017690266 -0.10650141 -0.16686969
000360 cd 7a c5 3d 92 a2 91 3d f4 1c 6a bc 3b c0 e9 bd
       0.09642563 0.07111086 -0.0142891295 -0.11413618
000370 4f 9a 54 3d cb c2 df bd 55 2d 49 be 8a 86 11 3c
       0.051904973 -0.10925826 -0.19646199 0.008882174
000380 87 c1 89 bd 7f de 04 be 1f 20 e9 bd f0 f9 1d 3d
       -0.067263655 -0.129755 -0.1138308 0.038568437
000390 db 04 0b bc 3d a1 d4 bd a7 9c 78 bd 22 9c cb 3b
       -0.008485044 -0.10382316 -0.06069627 0.006213681
0003a0 97 81 52 bd f2 73 56 bc eb eb b1 bd 34 a4 99 3c
       -0.051393118 -0.013089167 -0.08687576 0.018755056
0003b0 35 47 bf bd 28 d2 a4 bd ad d9 a4 3d 77 73 65 3c
       -0.093397535 -0.080478966 0.08049331 0.01400458
0003c0 4b 10 16 3e bf 7f 92 3d 75 26 02 be fd ff 5d bc
       0.14654653 0.07153272 -0.12709983 -0.013549802
0003d0 cf a5 9f ba 38 0d 24 3b d6 ce d0 bc 56 e3 67 bd
       -0.0012180152 0.0025032293 -0.025489252 -0.05661329
0003e0 e2 69 c4 bd 09 24 3a 3d 1d 36 f4 3c 9e be 1d be
       -0.09590508 0.045444522 0.02981096 -0.15404746
0003f0 c7 23 9c bd 6b e6 39 be c2 76 f5 bc 97 b3 cf bc
       -0.076240115 -0.18154304 -0.029963855 -0.02535419

model.2.bias f4 [16]
000000 ef 1d ac 3d 8b f2 95 3d 09 00 d5 bd f8 9f 90 bd
       0.08404147 0.07321652 -0.10400397 -0.070617616
000010 23 20 cf bd 0f 2f 0e bc 73 fb 99 bb 19 b0 ad bd
       -0.101135515 -0.008678212 -0.0046991645 -0.084808536
000020 d5 c2 9b 3d 98 5a 96 bd e2 58 b0 bd 3b fe 59 3c
       0.07605521 -0.07341498 -0.08610703 0.013305242
000030 90 84 d9 bc 5b ae ac bd 20 4a 47 3d 8a b4 9f bd
       -0.026552469 -0.08431693 0.048654675 -0.07798107

model.5.weight f4 [32, 16, 3, 3]
000000 64 53 ba 3b 54 da 15 be 40 c8 9c 3d da 82 f4 bc
       0.0056862105 -0.14634067 0.07655382 -0.029847551
000010 57 e5 21 be a7 b3 48 3c 70 00 a9 bc 9f d3 af bd
       -0.15810142 0.012249864 -0.020630091 -0.085852854
000020 57 b1 a5 bd db 04 ea bc 8a 36 8c 3a 37 c7 b1 bd
       -0.080904655 -0.028566768 0.0010697406 -0.08680575
000030 68 25 ea bd 88 89 42 bd d3 09 83 bd 98 96 27 3d
       -0.11432916 -0.04749444 -0.06398358 0.0409151
000040 b3 a5 99 3d 29 a2 a0 3d 2f 4d ec bc dc f5 ca bc
       0.07502308 0.078434296 -0.028845398 -0.024775438
000050 de dd a8 bd 20 58 d7 bd 78 64 96 bd 29 a9 21 be
       -0.08245443 -0.105148554 -0.07343382 -0.15787186
000060 3d 56 25 be 82 00 05 be 07 56 8f 3d 20 09 2f bd
       -0.16146179 -0.12988475 0.0699883 -0.04273331
000070 46 5b c4 bd 3c dc a0 bc b1 ae b9 bd 24 a0 11 be
       -0.095877215 -0.019636266 -0.09066523 -0.14221245
000080 ec 03 0a be d0 c2 bd bd 68 06 b5 bd f3 48 c0 bd
       -0.13478059 -0.09265673 -0.088391125 -0.09388914
000090 03 72 c2 bd cb 04 46 bb b8 80 84 bc 43 25 74 bd
       -0.09494402 -0.003021526 -0.01617466 -0.059605848
0000a0 39 61 63 3d 30 69 db 3d 6d e5 e1 bc 44 b6 2a bb
       0.05551264 0.10713422 -0.027575219 -0.002604858
0000b0 6e 3e bc bd 18 07 a3 3c c4 bb 54 bb c1 e9 3f 3d
       -0.09191595 0.019900844 -0.003246055 0.046853784
0000c0 f8 7c 06 be 02 00 e5 bd a7 a2 fd 3d e9 33 95 bd
       -0.1313361 -0.11181642 0.12384539 -0.07285292
0000d0 68 24 b4 3c af d6 a1 3d bc 73 22 bc df 2b aa 3d
       0.021990016 0.07902276 -0.009915289 0.08309149
0000e0 ce cc 8c bc 6a bf f1 bd 6c c5 3d bd 94 3f 84 3d
       -0.017187502 -0.118040875 -0.046330854 0.06457439
0000f0 65 4f 1d bd ac 4e 1b 3c 40 84 b4 bd 88 c7 d4 3d
       -0.038405795 0.009479206 -0.08814287 0.1038962
000100 7a 5b 82 bd 02 23 bf bd 7a b9 0c bd 90 69 67 3d
       -0.06365104 -0.09332849 -0.03435657 0.056497157
000110 13 59 a3 3d 3f 0f d0 3c e5 3b 61 3d 1c ca bf 3d
       0.07975974 0.025397895 0.05498876 0.09364721
000120 c1 de 40 3a 2d a7 42 3d 7e c0 cb bd 9a 08 51 bc
       0.00073574117 0.047522712 -0.09948824 -0.012758398
000130 f8 87 d3 3d 64 99 48 bd db cd 90 bd 76 6a 27 be
       0.10328668 -0.04897441 -0.07070514 -0.16349205
000140 97 10 d4 b8 b6 fc 9b 3d 50 1c 33 3d aa 67 36 bd
       -0.00010112038 0.0761656 0.043728173 -0.044532456
000150 1c 8d fe bd fd a0 8c 3d 95 14 a8 bd 93 c2 30 bc
       -0.12429258 0.068666436 -0.08207051 -0.010788578
000160 bd 18 e5 3d 1d 14 f9 bd 7e c6 ed 3d d4 fc a0 bc
       0.11186359 -0.121620394 0.11610125 -0.019651808
000170 94 4d 12 3d af 4f bc 3c 34 82 83 3c e2 cf 41 be
       0.035718516 0.022987215 0.016053297 -0.18926957
000180 99 cf 96 3d 50 52 85 3b 5e c9 95 be 6b a5 1c bd
       0.07363815 0.0040686503 -0.29255193 -0.038243692
000190 27 4a aa bd 54 f9 20 3e fb 39 1f 3d 23 a4 b2 3c
       -0.08314925 0.15720111 0.038873654 0.021806782
0001a0 39 da 5b bc af e3 b2 bd e6 01 7e bd 64 4d 92 bd
       -0.013418728 -0.087348334 -0.06201353 -0.07143667
0001b0 63 63 0c bc f3 a3 5c 3d 3e 8c 8d 3d 7b c7 6b bd
       -0.0085686175 0.05386729 0.06911515 -0.057563286
0001c0 8a 81 68 3c 87 bb 05 3d 5a ff bf bd 1c 1b b8 bd
       0.014191041 0.032649543 -0.09374876 -0.08989546
0001d0 b1 8d f3 bc a1 61 9f 3d 45 ae 1d 3d 0f b9 e5 bd
       -0.02973065 0.07782293 0.038496275 -0.11216938
0001e0 d6 3c 99 bd 57 67 2c 3d 33 e3 17 be 6e 7d 86 bd
       -0.07482307 0.04209074 -0.14832763 -0.065668926
0001f0 0c 84 b7 3c e7 ee e4 bd a6 c0 20 bd 26 05 96 3b
       0.022401832 -0.111783795 -0.039246224 0.0045782505
000200 a0 50 ab 3d 17 03 d0 bd 69 d4 dd bd b1 86 c3 3d
       0.083649874 -0.10156839 -0.1083153 0.09547175
000210 c2 e1 db bd d7 0d bb 3d ab 69 b8 3d c3 a2 0d 3d
       -0.10736419 0.09133499 0.090045296 0.03457905
000220 df 63 7e 3d 41 7b ad 3c 41 5f 6b be 5d 26 04 3c
       0.062106963 0.021176936 -0.22985555 0.008065787
000230 6a 98 a9 3c b2 a6 92 bd 88 2b 8c bb 5c a6 85 3c
       0.02070256 -0.07160701 -0.0042776503 0.016314678
000240 5c 71 5f 3d 6c c9 81 bc d1 a9 18 3e 55 6d 74 3c
       0.054551467 -0.015843116 0.1490853 0.014918645
000250 3f b1 50 bc 51 6a 2c be f6 be 45 3c 7c 5d 6b bc
       -0.012737571 -0.16837431 0.012069454 -0.01436555
000260 81 9c 5c 3d 13 23 eb 3c ae 0b a4 bd 54 59 9d 3c
       0.05386019 0.028703248 -0.0801004 0.019207634
000270 7a 7c 72 bd 95 2b c8 3d f0 e0 1b bd 30 ab 71 bd
       -0.05920074 0.097739376 -0.038056314 -0.059001148
000280 94 66 d9 3c 9e 71 9a 3d b7 59 60 3b bd 28 a3 bd
       0.02653817 0.07541202 0.0034233162 -0.079667546
000290 42 30 10 bd a7 b3 1c 3c 70 fd ed 3a 8c c7 ae 3d
       -0.035202272 0.009564317 0.0018157195 0.08534154
0002a0 c4 2f 04 3d 92 67 02 be 16 23 65 3d d8 d4 ad bd
       0.032272115 -0.12734821 0.055941664 -0.08487862
0002b0 82 35 43 3d d0 ca 20 bd 51 65 e5 bd 49 76 a7 3c
       0.04765845 -0.039255917 -0.11200965 0.020442145
0002c0 0f 32 92 3d 5b 4a 56 bd 87 4d 35 bd 6e 1b 13 be
       0.07138454 -0.052317005 -0.04426339 -0.14365932
0002d0 da 1f ca bd 1e c9 2c bd 6a 96 25 3d af 26 5a bd
       -0.098693565 -0.042183988 0.04042665 -0.053259548
0002e0 82 6d a9 bd 1d 96 dc bc dd 53 f7 bc cf 06 bc 3d
       -0.0827284 -0.026927048 -0.030191356 0.09180986
0002f0 a9 e4 3d 3d a3 a3 3a 3b 77 41 c7 bd 52 fa 78 bd
       0.046360645 0.0028478883 -0.09729283 -0.0607856
000300 5d e8 69 bd 37 99 d2 bc 6d a0 b7 bc 80 81 c8 3d
       -0.057106365 -0.025707824 -0.022415364 0.09790325
000310 79 da 13 be 97 45 13 be d9 78 3d 3d 2b 5a f6 bb
       -0.1443881 -0.14382015 0.046257827 -0.007518073
000320 ef 8a 41 3b d0 ab cb bb ca 3a ad 3c 9c 12 2c bd
       0.0029532274 -0.00621555 0.021146197 -0.042009935
000330 bc 5c 91 bd 13 30 04 bd 2e bf 00 3c 48 4d 75 3c
       -0.07097766 -0.03227241 0.007858081 0.014972039
000340 c7 c9 08 3d e3 71 0d 3a 69 c8 cc 3b 77 ac a7 bd
       0.033395555 0.00053956936 0.0062494767 -0.08187192
000350 4f 6f ff 3d 18 5a 47 bd f9 c2 c1 bd 64 83 d1 bb
       0.12472402 -0.048669904 -0.09461016 -0.006393837
000360 59 a0 a3 bd f5 20 c0 bb 36 94 d8 bc ec 1c 47 bd
       -0.07989568 -0.005863304 -0.02643786 -0.048611566
000370 d3 c4 08 bc fa 82 2c bd d0 0d 20 3d b5 62 5c bd
       -0.008347708 -0.042117096 0.039075673 -0.05380507
000380 5c cc 28 be b1 8f 06 be b4 0e 15 3d 9b 3e 96 3d
       -0.16484207 -0.13140751 0.036390975 0.0733616
000390 2b 57 8d bd cb 33 41 bd 74 6c 36 3c 40 d5 13 bd
       -0.069013916 -0.047168534 0.011134256 -0.036092043
0003a0 8a 21 81 3d 39 6e 43 bc a4 0f 4f 3d 55 5d 83 3d
       0.06305225 -0.011928135 0.050552025 0.06414286
0003b0 c0 4f 92 bd 3c de de 3c 34 cc b3 bd 38 b8 a3 bd
       -0.07144117 0.027205579 -0.08779183 -0.07994121
0003c0 92 94 89 3d da 1c 27 3d be 4f 02 3c 10 c7 82 bd
       0.06717791 0.040799 0.007953582 -0.063856244
0003d0 7c ca b4 3d 0d 15 c2 3d b6 bf b3 3d 83 92 93 bc
       0.08827683 0.09476671 0.087768 -0.018014198
0003e0 16 c4 40 3b 7e 11 fb bc ee ae be bd 22 f2 c0 3b
       0.0029413751 -0.03064799 -0.09310709 0.0058882395
0003f0 a6 9f 1a be 22 fc 10 bb fd 90 0e be 8c 38 62 bd
       -0.15099964 -0.002212294 -0.13922496 -0.05522971

model.5.bias f4 [32]
000000 a5 7b cb bd fd 13 ff bd f9 2c 9e bc 64 51 97 bc
       -0.09935693 -0.12454984 -0.019308554 -0.018471427
000010 48 60 2c bc 50 db 0c be 01 7d 9c 3d 0b a7 87 3d
       -0.010521002 -0.13755536 0.0764103 0.06623658
000020 d9 ef b3 3d ee ab 0f 3e 05 f2 43 3e 61 42 ee bc
       0.08785982 0.1403043 0.19135292 -0.029084386
000030 78 90 d1 3c 60 58 b6 3d e2 a4 13 3c d7 da 39 bc
       0.025581583 0.08903575 0.009011479 -0.011343679
000040 3d 6f 1f 3d 51 f5 b9 ba 68 f0 c7 bd 79 c8 3e 3d
       0.038924444 -0.001418749 -0.09762651 0.046577904
000050 4b 06 b5 3c 0b 6c 38 be 5e 09 96 bd 66 57 3d bd
       0.022097727 -0.18009965 -0.073260054 -0.046225928
000060 c6 a5 37 3e 5b f4 04 3d 96 db f9 3c f9 18 80 3d
       0.17934331 0.032459598 0.030500215 0.06254763
000070 e6 93 d6 bd 9d 5c d3 bc e5 10 f4 3d 10 4c 0a 3c
       -0.10477428 -0.025800997 0.11917285 0.008440986

model.7.weight f4 [32, 32, 3, 3]
000000 f1 93 e5 bc d1 09 b4 bd 2e 93 c4 3d ee 87 2e ba
       -0.028024646 -0.08790935 0.09598385 -0.00066578283
000010 83 bd d3 bc 70 2a c9 bb cb 09 0f be 6b 77 86 3d
       -0.025847202 -0.006139092 -0.1396858 0.06565746
000020 f9 bf 49 3d 1f a4 eb 3c 9d e4 60 bd d8 63 55 3c
       0.049255345 0.028764782 -0.054905523 0.013024293
000030 18 93 90 3b ab ff 3e 3c e3 4a 17 bd 52 71 96 ba
       0.004412066 0.011657636 -0.036936652 -0.0011477864
000040 bf 29 39 bc 69 27 0a bc dc dc 3d bb 79 f4 a3 bc
       -0.011301457 -0.008432248 -0.0028970754 -0.020014035
000050 c9 fd 2a bd 73 65 81 bd 6b dd b9 3c fd d2 dc 3a
       -0.041745935 -0.06318178 0.022688588 0.0016847547
000060 2f 9d 1e bd 7d 8c 65 bd 1e b5 3f bd 18 aa e3 3c
       -0.03872412 -0.056042183 -0.046803586 0.027791068
000070 86 17 35 3c 79 81 28 3d c2 d4 14 3d 4f eb d5 bc
       0.011052972 0.0411391 0.036335714 -0.02611318
000080 03 cc c3 3b 89 9f fe ba c7 e5 44 bc 43 00 12 3d
       0.005975248 -0.0019426207 -0.012017674 0.03564478
000090 3c 0d a0 bd ae 6b 74 3d 67 a5 c3 3c 5f 80 f9 3b
       -0.07815024 0.059673004 0.02388258 0.00761418
0000a0 8a c9 5a 3d c9 71 4c bd 06 0d da 3c 95 6c 6c 3d
       0.05341486 -0.0499132 0.026617538 0.05772074
0000b0 14 9d 4f 3c 79 51 98 bd 16 f9 07 bc 57 54 b4 bd
       0.012671728 -0.07437415 -0.008299133 -0.08805149
0000c0 c8 4b 6e bd 7e 8f aa bc 0c 35 c1 bc 43 b7 1a bd
       -0.05817774 -0.020820376 -0.023584865 -0.03777243
0000d0 11 8e 94 bc 60 e1 43 3a b6 a0 c1 bd 76 f1 0d be
       -0.018134149 0.0007472243 -0.09454481 -0.13861641
0000e0 d5 87 b4 bd 21 24 bb bd c1 98 a9 bd b3 b6 c8 bd
       -0.088149704 -0.091377504 -0.082810886 -0.09800472
0000f0 f9 de 0c bd 1a ac 89 3c 5a 6d d8 bd b2 9e 4f bd
       -0.03439233 0.016805697 -0.10567732 -0.050688453
000100 80 22 54 bd c9 34 ee 3c f4 9b 05 bd ad 9f 79 bd
       -0.051790714 0.029077904 -0.03261943 -0.060943294
000110 9d 57 2d bd 62 04 97 3c bb 18 32 3b 54 bd d8 bc
       -0.042319883 0.018434707 0.0027175385 -0.026457466
000120 d6 66 98 bd 3f 32 82 3c e3 d0 49 bd eb 53 a6 3b
       -0.074414894 0.0158931 -0.049271476 0.005075922
000130 e3 72 8f bd 93 ae 85 bd 4f a5 8d 3c 3f 64 b8 3c
       -0.07004335 -0.06527438 0.01729074 0.022508739
000140 36 26 49 bd da b6 63 bc e4 e7 9d bd 9f 56 1d 3d
       -0.049108706 -0.013898576 -0.07710245 0.038412686
000150 52 9b 73 bd 68 95 5b bd c8 19 d8 3c ca 67 3d bd
       -0.059474297 -0.05360928 0.026379481 -0.04624156
000160 11 2a 79 3c bc 62 2e bd 13 0a 92 bd f3 90 a6 3c
       0.015207783 -0.04257463 -0.07130828 0.020332789
000170 11 37 54 3a a1 d0 38 bd 33 65 b8 bc da a8 42 bd
       0.0008095364 -0.04512084 -0.022509193 -0.04752431
000180 8e 74 84 bd 21 82 ef bb ba a9 ca 3c a7 da 84 bd
       -0.064675435 -0.0073092137 0.024739135 -0.06487017
000190 0d e5 15 bd 9f 90 e9 bb d4 eb 97 bd 68 98 a4 bc
       -0.036595393 -0.007127836 -0.074180275 -0.020092204
0001a0 d7 c9 94 bc b7 52 ec bc 00 e6 05 bd 0a 6a 2c bd
       -0.018162651 -0.028848035 -0.03269005 -0.042093314
0001b0 14 3b 57 bc 6c 1a 99 bc be d6 19 3d 88 73 b8 bd
       -0.013136644 -0.018689357 0.03755831 -0.09006411
0001c0 4b f7 34 bd d0 e8 bd bd 2d d9 ab bc 5a 55 06 3c
       -0.04418115 -0.09272921 -0.02097758 0.00819906
0001d0 29 d6 15 3d 35 63 97 bd 2a 53 81 bd 86 46 40 3c
       0.036581192 -0.07391969 -0.063146904 0.011735564
0001e0 1c 1f e2 bc 4c 7e d8 bd 8b 34 96 bd cf 96 22 bd
       -0.027602725 -0.10570964 -0.073342405 -0.039694604
0001f0 20 31 2b bd 6e e6 c9 bc 58 12 17 bd 01 ce e2 bc
       -0.041794896 -0.02464601 -0.03688273 -0.027686121
000200 21 11 67 bd c0 01 8d bc 44 17 ec 3c 89 ea 6c bd
       -0.05641282 -0.017212749 0.028819688 -0.057840858
000210 71 0d 40 3b 24 13 2a 3c 15 24 24 bd b6 79 ed 3b
       0.0029304887 0.01038054 -0.040073473 0.007247175
000220 fc c3 9d bd ae 3d b9 bc be ca 30 bd 85 3b 36 3d
       -0.07703397 -0.022612419 -0.0431621 0.044490356
000230 6e 50 d0 3a 4c 2a e1 bc 5e b9 35 be 23 29 2f bc
       0.001589311 -0.027485989 -0.17746493 -0.01069096
000240 12 5d 7c 3c 96 db 8d bd 4b fc 87 bd 3c 93 33 3b
       0.015403049 -0.06926648 -0.06639918 0.002740099
000250 dc 37 97 bc b1 17 cf bd 66 42 9c bb cd 5f 20 bd
       -0.018459253 -0.10111941 -0.0047686575 -0.039153863
000260 b8 22 05 bc 6d fe 43 3a 8c a2 7c bd 47 b6 cf 3d
       -0.008125953 0.0007476572 -0.061678454 0.101421885
000270 88 09 f8 bc e6 e9 92 bd d8 cd 4b bd 73 e4 d1 bc
       -0.030277982 -0.07173519 -0.049756855 -0.025621628
000280 ed ad d1 39 bd 85 8c bc 89 94 ac bd 6b df 03 be
       0.0003999317 -0.017153615 -0.08426768 -0.12878196
000290 c4 e1 b2 bc 33 a2 d3 bc e2 ed 69 bd 7d 0f 86 bc
       -0.021836169 -0.025834179 -0.05711163 -0.016364807
0002a0 63 49 66 bc 48 f0 63 3d 24 12 b6 bc 3e 82 80 bd
       -0.014055583 0.055649072 -0.022225447 -0.06274842
0002b0 7a 80 1f bd 4b c6 a6 3d bf 76 82 bd cf b2 95 3b
       -0.038940884 0.0814329 -0.06370305 0.004568435
0002c0 48 6c 2b bc 9d 16 0d 3d 4d d6 75 bd 41 52 17 bd
       -0.010462828 0.034445394 -0.060018826 -0.036943678
0002d0 dd a8 94 bd 68 e3 27 3c 00 d2 fd bc 01 af 13 3c
       -0.072587706 0.010247089 -0.030983925 0.009013892
0002e0 61 5b 1c bd 7e e3 d6 bc d2 40 3f bd e9 e9 3f bc
       -0.038173083 -0.026231524 -0.046692677 -0.011713483
0002f0 4b fe 5d 3c 56 bf b3 3c 0c db d2 bb f6 9a a4 bc
       0.013549398 0.021941822 -0.006434804 -0.020093422
000300 3b 2b 5d 3c b7 b4 48 bd d5 76 b4 3c d8 a0 72 bd
       0.0134990765 -0.049000468 0.02202932 -0.059235424
000310 4c 58 26 bd 40 06 a6 bd fa 98 42 bd 65 71 7c bb
       -0.04061155 -0.08106661 -0.04750917 -0.0038519737
000320 ca ff 71 bc 72 df d7 3c 23 89 8f ba 69 bf 1d 3c
       -0.0147704575 0.026351664 -0.0010950904 0.009628155
000330 c9 be 24 bd d0 93 47 3b 48 f0 25 bd 1f 9c 40 3d
       -0.04022101 0.0030453093 -0.040512353 0.04702389
000340 56 76 b7 bd e1 79 2f 3d aa d5 ca bb 53 c2 fb bd
       -0.08958118 0.042840842 -0.0061900215 -0.12292924
000350 87 e1 b7 bd ff 51 6a bc 09 d7 12 bd 20 f3 0f bd
       -0.08978563 -0.014301776 -0.035849605 -0.03514397
000360 16 5c 31 3c 6e 58 a0 3b 3e 24 fd bc 2d bc a8 bd
       0.010825178 0.004893354 -0.03090107 -0.08239017
000370 3d f5 0d 3c 43 c5 7b bc fe 0d 36 3d e5 18 12 bd
       0.008664426 -0.015366855 0.044446938 -0.035668273
000380 88 60 5b 3d 20 4d 8f bd d4 04 3f bd 9e 86 f5 bd
       0.053558856 -0.06997132 -0.046635464 -0.11988567
000390 51 c4 ee bb 12 89 dd bd 86 2a b6 bd 91 b5 a6 bd
       -0.0072865863 -0.1081716 -0.088948295 -0.081401
0003a0 24 ba b2 bd b3 8c 12 bd 01 b7 07 bc d9 cc 19 bd
       -0.0872691 -0.035778712 -0.008283378 -0.037548874
0003b0 e8 93 4a bd 34 35 3f bd 4d 2c 25 3d 77 c3 ef 3c
       -0.04945746 -0.046681598 0.04032545 0.02926801
0003c0 64 8c 09 3d b3 75 a4 bc a8 b3 46 bd c7 64 42 bd
       0.033581153 -0.020075655 -0.048511177 -0.04745939
0003d0 4d 26 c7 bd 58 fd 94 3d 6f e8 05 bd 3c 59 7a bd
       -0.09724102 0.07274884 -0.03269237 -0.061120257
0003e0 d6 24 a4 bd e2 58 2e bd 53 e3 c3 bc a0 24 12 be
       -0.080148384 -0.042565234 -0.023912108 -0.14271784
0003f0 a0 0f ad bd da ad 50 3a 01 66 82 bd f6 66 8c 3b
       -0.08450246 0.0007960476 -0.06367112 0.004284735

model.7.bias f4 [32]
000000 56 d5 85 bd 47 16 cb bc 6a 9d c8 bc b9 2c 2c bd
       -0.06534831 -0.024790896 -0.024489123 -0.04203484
000010 a2 42 58 bd 8a 14 09 bc 8c b5 0d bc 19 dc e4 bd
       -0.05279792 -0.008366713 -0.008649241 -0.11174793
000020 f6 26 02 bd 64 e0 1d bd bb b0 61 3d f6 85 c1 bd
       -0.031775437 -0.038544074 0.055100184 -0.09449379
000030 a7 01 65 bc 75 99 0a 3c 50 6e 5e bb 5f 36 46 bd
       -0.013977445 0.008459439 -0.0033940263 -0.048391696
000040 4b 32 1e 3d 9c ee fc bd de ff 68 bd 6f 43 65 bd
       0.03862218 -0.123501986 -0.05688464 -0.055972513
000050 e7 54 83 3b 7a 9a 80 bc cf 09 a3 bd 6f c8 6f 3d
       0.004007924 -0.01569866 -0.07960855 0.058540758
000060 f3 2d 4c bd 8e b4 65 bb ce a3 3a 3b b9 5d 69 3c
       -0.049848508 -0.0035050246 0.0028478983 0.014243537
000070 5f 83 f6 bc 6f 90 4f bd 2d 01 02 be c2 d2 4a 3d
       -0.03009194 -0.050674852 -0.12695761 0.0495174

model.11.weight f4 [10, 1568]
000000 a7 69 b4 3a ca 41 a1 3b 93 7f 20 3c a5 6c b6 3c
       0.0013764397 0.0049211727 0.009796041 0.022268603
000010 27 9e 04 bd 02 1b 9a ba d7 00 21 3c c0 6e 3e 3d
       -0.03237739 -0.0011757317 0.00982686 0.04649234
000020 62 98 66 bd bd 15 5d 3c ce 04 3f bb 9e a1 87 3b
       -0.056297667 0.013493952 -0.002914715 0.0041391393
000030 c0 90 ea 3b 60 8d ef 3b 99 80 38 bd 0c 10 f7 bc
       0.007158369 0.0073105544 -0.045044515 -0.030159019
000040 8d f8 e4 bb d8 ba 2c 3d 5a db 2f 3c b1 16 64 3c
       -0.0069876374 0.042170376 0.01073345 0.013921426
000050 d2 19 51 bc a4 0e 08 bd 3b 81 75 bd 01 5f 2f 3c
       -0.012762504 -0.033217087 -0.059937697 0.010703803
000060 65 5c 83 3d 0c cb 1e 3c f2 3d 34 3c 9b b8 ca 3c
       0.06414107 0.009691965 0.011001097 0.02474623
000070 1a 45 c8 3c 9d 8a 2d bb fc bc 39 3c 21 de 8e 3c
       0.024447013 -0.0026480325 0.011336561 0.017439904
000080 28 c3 53 bc 55 f5 ec bc ca c9 64 3a b4 dc 6a bd
       -0.012924947 -0.028925577 0.00087275787 -0.057339385
000090 fb 0b 88 3d 8d 77 62 bc 09 44 51 3c 26 28 00 bc
       0.0664291 -0.013822448 0.0127725685 -0.007822072
0000a0 48 ae 88 3c 05 ce 14 3c 05 fa b0 3b 29 da ad 3c
       0.016684666 0.009082322 0.0054008984 0.021222191
0000b0 fb 5a 73 3d 1f 4e c2 bc 98 56 00 bc 38 75 00 3b
       0.059412938 -0.023718892 -0.007833146 0.0019601118
0000c0 c5 f1 8c ba 13 c5 10 be 2e 31 18 be cf b7 a0 bd
       -0.0010753205 -0.14137678 -0.1486251 -0.07847559
0000d0 19 7f dd 3c e3 b0 78 bc e3 88 e0 bc c3 58 ad ba
       0.027038144 -0.015178892 -0.027409023 -0.0013225306
0000e0 22 24 01 3d 40 d1 b1 bd 77 2a 98 bd bd 68 d9 3c
       0.0315286 -0.086824894 -0.074299745 0.0265392
0000f0 2e c3 8d 3c f6 52 16 3b ae cc 21 bb b3 f1 a3 bd
       0.017304983 0.0022937632 -0.002468865 -0.08005085
000100 d4 d5 e6 3b 99 98 87 3b 79 d7 a7 3c 7d 9f 37 bc
       0.0070445333 0.004138064 0.020488488 -0.011207459
000110 e5 ab 3f bb 1d de 8c bb 5c c4 53 3d 50 b7 a4 3c
       -0.0029246744 -0.004298939 0.051700935 0.020106941
000120 6e 82 97 3b 03 8f 58 bc a8 d5 64 bc 5e f3 b4 bc
       0.0046237027 -0.01321769 -0.013966955 -0.022088703
000130 e5 e1 96 3c 2f 9e 02 bd 50 d9 3f bd ef f3 6c bc
       0.018418262 -0.031889137 -0.046838105 -0.014462455
000140 22 50 58 3c f1 7d de bc 03 4e fe 3b 4b 8f 32 bc
       0.013202699 -0.027159663 0.0077607646 -0.0108984215
000150 52 63 81 bc 84 98 d8 bc fd 79 a1 bc aa 0e a5 bc
       -0.01579443 -0.026439913 -0.019711489 -0.020148594
000160 75 2a 89 3b 37 96 f9 3b 50 dd 37 ba 82 2a 19 bc
       0.0041859695 0.007616784 -0.0007013874 -0.009348514
000170 f3 02 9a bc 89 bc 06 3c ed 84 c1 bc cc 0a a4 3c
       -0.018800234 0.008223661 -0.023622954 0.02002468
000180 69 36 ab bc f3 65 25 3b 05 03 8b bc 21 c5 25 bd
       -0.020899968 0.0025237768 -0.016969213 -0.0404712
000190 b7 37 d6 bb e1 5e a9 3c 99 ba a1 bd dd 71 0b bd
       -0.0065374034 0.020675125 -0.07896919 -0.034044135
0001a0 8e 46 d1 bd 40 ac b6 3c b8 b1 16 3d 86 f4 bd 3c
       -0.10218535 0.022298932 0.03679058 0.023187887
0001b0 f4 90 2f bd 7d 2a 32 bd 39 5e b5 bc 06 a4 a0 bd
       -0.042862847 -0.04349755 -0.022139655 -0.07843785
0001c0 fe cd da bb 24 08 2f 3d eb 99 ab bc 39 cd 8d bc
       -0.006677388 0.042732373 -0.020947417 -0.017309772
0001d0 0a 38 9a 3c 5d 38 81 3d be a4 e1 bc 13 20 06 3b
       0.01882555 0.063095786 -0.027544376 0.0020465895
0001e0 ad 23 23 bc f6 e3 4a bd 22 56 18 bc f1 fd 06 3d
       -0.009957236 -0.049533807 -0.009297879 0.03295702
0001f0 50 70 6e bc dc c8 ad 3b 13 ff 10 bd 4a 02 96 bd
       -0.014553145 0.0053034853 -0.035399508 -0.07324655
000200 7a ba 11 be b2 0a e7 bd ab 0e 04 bd 12 63 18 3c
       -0.14231291 -0.11281337 -0.03224055 0.009300964
000210 d0 f6 f7 3c 92 aa d3 39 d0 66 dc 3c 9f 7b 84 bd
       0.030269057 0.0004037214 0.026904494 -0.06468891
000220 57 25 12 be a1 da c3 bd 29 c3 84 bb 99 a4 99 3c
       -0.14272057 -0.095631845 -0.004051585 0.018755244
000230 bd 6e 17 3c 91 6b c6 bb 5d a9 32 3c ec ba 09 3d
       0.009242711 -0.0060553034 0.010904637 0.03362553
000240 76 ba 9f 3c 77 18 0e 3d 8e 6e 1f 3c 17 f8 26 bd
       0.019498091 0.0346913 0.009730948 -0.04076394
000250 ba 54 96 bd 86 b8 dc 3b 64 2d 9a bb 21 5d 1e 3c
       -0.07340379 0.006735864 -0.004705118 0.009665758
000260 08 9d 35 3d df c3 88 bd 22 af 2a 3d 94 b5 85 3c
       0.04433921 -0.066779844 0.041670926 0.016321935
000270 0f 0b 70 bb 70 bc 71 3c ed 8a 2a 3b 44 b0 8a bc
       -0.0036627685 0.0147544 0.0026022748 -0.016929753
000280 35 71 b3 3c 4e 48 3f bd 89 f5 0e bd 9f de f0 bd
       0.021904567 -0.046699814 -0.03490213 -0.117612116
000290 3e ab 4c bc 86 ab b2 3d 0b 58 fc 3c 1e 72 98 bc
       -0.012491999 0.08724122 0.0308037 -0.018609103
0002a0 57 83 0d bd bd fc 36 be 6f d0 b9 bd 81 bb 8d 3d
       -0.034549084 -0.1786985 -0.09072959 0.06920529
0002b0 36 e9 19 bd 90 62 06 bd 51 3b 23 3c ea da de 3c
       -0.037575923 -0.03280884 0.009962873 0.027203996
0002c0 fe bd 7b be 99 9e b3 bd 6b 9c 72 3c 2a e4 48 3d
       -0.24584195 -0.087704845 0.014807801 0.04904572
0002d0 1b 8a 38 bc 40 31 1e 3c 9d b2 ca bc f7 49 2b bd
       -0.011263396 0.009655297 -0.024743373 -0.041818585
0002e0 5b 98 fa bd b0 b5 c3 bd be 37 63 bc 56 36 b5 3b
       -0.12236091 -0.095561385 -0.01386827 0.005530159
0002f0 bb cc cc bc 08 ff 69 bc fd 65 a0 bc c0 8d ba 3c
       -0.024999967 -0.014281996 -0.019579882 0.02277267
000300 f3 e2 69 be 13 b6 17 be db 61 f7 bc 53 e3 dd 3c
       -0.2284048 -0.1481555 -0.030198028 0.027085936
000310 77 29 af bd 18 60 3a 3d 26 93 12 3d 96 6f 66 bc
       -0.08552831 0.0455018 0.035784863 -0.01406469
000320 db df 35 bd 89 49 a6 ba 50 a3 e8 bb 37 60 c1 bc
       -0.04440294 -0.001268671 -0.0070995465 -0.02360545
000330 67 a6 df bc e6 87 d4 3c f9 83 32 3d a4 6c 17 bb
       -0.027301027 0.025943708 0.04358289 -0.0023105526
000340 ce ff 2a 3d 59 26 fe 3c dc 19 45 bd f9 71 7e 3d
       0.04174786 0.031024145 -0.048120365 0.06212041
000350 7b 9b 0d 3c c0 91 9e 3b d1 6e 0c bd eb 47 15 3d
       0.008643026 0.004839152 -0.03428537 0.03644554
000360 44 cf 74 3d 7a 37 92 3d 2d 6d f2 3c 6c 8c 95 3c
       0.059767976 0.071394876 0.029593075 0.018255435
000370 d2 c6 30 3a d7 ba 93 bc 7f 49 09 bc fa d9 84 3c
       0.0006743494 -0.018033428 -0.008379339 0.01621722
000380 d0 87 57 3d 5e 19 80 bd ca 08 23 bc 0b c5 16 bb
       0.052619755 -0.062548384 -0.009950826 -0.002300563
000390 4a 71 b3 ba 53 e1 c7 bc 23 a5 11 bb 00 c3 68 bd
       -0.0013690379 -0.024399435 -0.0022223673 -0.05682659
0003a0 ba 6a a3 bd b5 5c a7 bb 29 55 92 bd ff 39 eb bd
       -0.07979341 -0.005107487 -0.07145149 -0.11485671
0003b0 83 c2 82 3c 34 7a 01 bd 6c 4f 1c bd 5d 79 96 bd
       0.015961891 -0.031610683 -0.03816168 -0.07347367
0003c0 aa ec f0 3c 0f 2e 28 3c b2 fc 34 bc 65 95 a7 3a
       0.029409725 0.0102648875 -0.011046575 0.0012785612
0003d0 52 a1 78 bd 42 e9 c9 bd 3c ef 64 bd 46 4f 82 bd
       -0.060700722 -0.098589435 -0.055892214 -0.063627765
0003e0 42 25 98 3d 10 b1 ac 3b 02 9c 83 bc 0f 13 59 3c
       0.07428981 0.005270131 -0.016065601 0.013249173
0003f0 0f e0 51 bd 40 be 50 bc fd 04 43 3d 05 46 a5 3b
       -0.05123907 -0.012740672 0.04761218 0.0050437474

model.11.bias f4 [10]
000000 c6 7f 02 3d 15 45 f2 3d 21 d6 79 3c e6 f2 78 bd
       0.031860135 0.118295826 0.015248806 -0.06077852
000010 1d e3 37 bd 80 60 80 bc 3a 6e d3 3c 2a 2e 00 3d
       -0.044894326 -0.015671015 0.025809396 0.031294025
000020 e4 1a 0e bd e8 40 06 bb
       -0.034693614 -0.0020485464
