이종호교수님/실습6/best_model.pth (torch, 132661 bytes, 10 tensors)

model.0.weight f4 [16, 1, 3, 3]
0	0xbe2295c1	-0.15877439
1	0x3e01ab4f	0.12663005
2	0xbbcb857a	-0.00621098
3	0x3e084199	0.13306274
4	0x3e3d08da	0.18460408
5	0xbe5fffad	-0.21874876
6	0x3e0ff7d0	0.14059377
7	0x3e54cfcb	0.20782392
8	0xbdbdbb17	-0.092642
9	0xbe7ef59c	-0.2489838
10	0x3c00206b	0.007820229
11	0xbc1d35aa	-0.009595314
12	0x3e99d6f5	0.30046812
13	0xbddcd468	-0.10782701
14	0x3df2dfc8	0.11859089
15	0xbdc455cf	-0.09586679
16	0x3c96342d	0.018335426
17	0x3e7ce4c2	0.24696639
18	0x3e8b51b8	0.27210784
19	0xbc03582f	-0.00801663
20	0xbeb50923	-0.35358533
21	0xbeb2d67f	-0.34929273
22	0x3e8df6a9	0.2772725
23	0xbe507e9f	-0.20360802
24	0x3d6acd81	0.05732489
25	0xbe7fd066	-0.24981841
26	0xbe8b1bf8	-0.27169776
27	0xbbebdcc9	-0.0071979505
28	0x3e72f725	0.2372709
29	0xbe769aec	-0.24082536
30	0xbd355ce0	-0.044278026
31	0xbb7d04ce	-0.00386076
32	0xbdf4ef3e	-0.11959694
33	0xbe4e96a1	-0.20174648
34	0xbe7a9c1c	-0.24473614
35	0x3e72a32b	0.23695056
36	0xbe6a40b3	-0.22876243
37	0xbe23d2c1	-0.15998365
38	0x3dd5a7fb	0.1043243
39	0x3e77ce5f	0.24199818
40	0x3e0a13b2	0.13484076
41	0x3e111cb5	0.14171107
42	0x3e705a0a	0.23471847
43	0x3d90e6c8	0.07075268
44	0xbdf3ea8e	-0.11909972
45	0x3e036fbe	0.12835595
46	0x3e99d00d	0.30041543
47	0xbe4c6650	-0.19960904
48	0xbe4a7905	-0.19772728
49	0xbe5d4de8	-0.2161175
50	0xbe907c1b	-0.28219685
51	0xbe8756c4	-0.26433384
52	0x3b03a656	0.0020088158
53	0xb91bb137	-0.0001484797
54	0x3e398958	0.18118799
55	0x3e83b7b5	0.25726095
56	0xbd638c16	-0.05555352
57	0xbe6e027b	-0.23243134
58	0x3c81f4f2	0.01586387
59	0x3d7156d1	0.058920685
60	0xbbe3e624	-0.006954925
61	0xbdde2270	-0.10846412
62	0xbe4fd7a6	-0.20297107
63	0xbdd2943a	-0.10282178
64	0x3e4f4a96	0.20243296
65	0xbdc49fd8	-0.096008
66	0xbcdc1e66	-0.026869964
67	0xbebc8521	-0.3682032
68	0xbdd30de0	-0.10305381
69	0x3d86e415	0.06586472
70	0xbe1addc9	-0.15123667
71	0x3e2456fb	0.16048805
72	0x3e78f029	0.24310364
73	0xbc207a07	-0.009794719
74	0x3d8ff965	0.0702999
75	0xbcf416bb	-0.029795995
76	0x3d24ced1	0.040236298
77	0x3e3141cc	0.17310256
78	0xbda8ff95	-0.082518734
79	0x3e2e5093	0.17022924
80	0x3db02aaa	0.086018875
81	0x3e63a83b	0.22232144
82	0x3e3dcd3e	0.18535325
83	0xbe37920b	-0.17926805
84	0x3ddfca24	0.10927227
85	0x3e37856d	0.17921992
86	0x3e5894da	0.21150532
87	0x3e7179ef	0.2358167
88	0xbde6e40a	-0.11273964
89	0xbe06fab2	-0.1318157
90	0x3e95ed9c	0.29282844
91	0x3d4be1f2	0.049776025
92	0xbe7c5a90	-0.24643922
93	0x3d18d93a	0.03731654
94	0x3e37821c	0.17920727
95	0xbe118fa3	-0.1421495
96	0xbe82ded3	-0.25560626
97	0x3e051591	0.12996508
98	0xbde8baf2	-0.11363782
99	0x3e35f385	0.17768677
100	0xbe7f6722	-0.24941686
101	0xbe01cb24	-0.12675148
102	0xbd8a3d7a	-0.06750007
103	0x3dcb7175	0.099337496
104	0x3e7439e0	0.23850203
105	0xbe0d9720	-0.13827181
106	0xbdf6a8f9	-0.12043948
107	0xbe962034	-0.29321444
108	0x3e517e88	0.20458424
109	0x3ce83fb3	0.028350687
110	0xbe392b10	-0.18082833
111	0xbe8ad2d9	-0.2711399
112	0xbe88bcb7	-0.26706478
113	0xbe8f1ce7	-0.27951738
114	0xbea168da	-0.31525308
115	0xbc86a44e	-0.016435768
116	0xbe05fef0	-0.13085532
117	0xbe6395e1	-0.22225143
118	0x3e422b29	0.18961777
119	0x3d89a8b1	0.067216285
120	0x3e012cb6	0.12614712
121	0x3e63aeac	0.22234601
122	0xbd4ff83a	-0.050773837
123	0x3e88cc18	0.2671821
124	0xbe9f2110	-0.31079912
125	0x3dc0171e	0.09379409
126	0xbd46cf8d	-0.04853778
127	0x3e4f41df	0.20239972
128	0x3cd30a9d	0.025761897
129	0xbe11e377	-0.14246927
130	0x3e60dcf3	0.21959285
131	0xbd0a31e7	-0.033738997
132	0xbe03c31e	-0.128674
133	0xbe8852e6	-0.26625746
134	0x3e8f868e	0.28032345
135	0xbe08f954	-0.13376361
136	0x3e9b82ff	0.3037338
137	0x3e204333	0.15650634
138	0x3c1c1092	0.009525435
139	0xbe9374ff	-0.28800198
140	0x3e3f9958	0.1871084
141	0x3dc2029b	0.09473153
142	0xbdc1cc79	-0.09462828
143	0xbd9090cf	-0.0705887

model.0.bias f4 [16]
0	0x3e6e4a1a	0.23270455
1	0xbe8b7947	-0.27240965
2	0xbd80706c	-0.06271443
3	0xbe3844ef	-0.17995046
4	0x3e235eb8	0.15954101
5	0xbe8bfe8a	-0.27342635
6	0x3d63c289	0.055605445
7	0xbd739ef9	-0.05947778
8	0x3e067b29	0.1313292
9	0xbd0d3fbb	-0.034484606
10	0xbe115258	-0.14191568
11	0xbe913b43	-0.28365526
12	0xbe57d14f	-0.21075939
13	0x3e1ba51a	0.151997
14	0xbdce1cb7	-0.10064071
15	0xbd00bfa1	-0.03143275

model.2.weight f4 [16, 16, 3, 3]
0	0x3d10d271	0.035356943
1	0xbd90bc71	-0.07067192
2	0x3ba615c3	0.005068512
3	0xba3829aa	-0.00070252514
4	0x3c1d0c03	0.009585383
5	0xbcf713c9	-0.030160801
6	0x3d92fb19	0.07176799
7	0xbc69fb56	-0.014281115
8	0xbc5fc46e	-0.013657672
9	0x3d8dcc71	0.0692376
10	0x3b16603a	0.002294554
11	0xbb53f458	-0.0032341685
12	0xbd2ac5b5	-0.041692454
13	0xbcb93098	-0.02260618
14	0x3c918a43	0.017766124
15	0xbd081044	-0.033218637
16	0xbd7ed057	-0.062210407
17	0xbc5d912a	-0.013523379
18	0xbd4762ea	-0.048678316
19	0xbd9104dd	-0.07081006
20	0x3d607c14	0.05480583
21	0xbc2be3e7	-0.010491348
22	0x3ccdd10b	0.025124094
23	0x3d77ab5c	0.060466155
24	0xbd3dc3b0	-0.0463292
25	0xbcfb3427	-0.030664517
26	0xbd1ee6a5	-0.03879418
27	0xbd8b994d	-0.06816349
28	0xbd9ea783	-0.07746794
29	0x3db7607d	0.089539506
30	0x3daa4180	0.083132744
31	0xbb52ec88	-0.003218444
32	0x3c3aaad4	0.011393268
33	0x3b19c5e9	0.002346391
34	0x3dc3cae7	0.09560185
35	0xbdbf1a76	-0.09331219
36	0xbc5b3fa4	-0.013381872
37	0xbc925200	-0.017861366
38	0xbc8de0d3	-0.017319119
39	0x3d1d9fc3	0.03848244
40	0xbd1e1aaf	-0.038599666
41	0x3cbee354	0.023301758
42	0x3d7f45c0	0.06232238
43	0x3c867aba	0.016415942
44	0x3d979589	0.074015684
45	0x3d801ddd	0.06255696
46	0x3d55f7ae	0.05223816
47	0x3d39d80d	0.045372058
48	0x3d045bd4	0.032314137
49	0xbd0e7b86	-0.03478577
50	0xbd3bbed6	-0.045836292
51	0xbd866d93	-0.065638684
52	0xbcb8d1ca	-0.022560973
53	0xbcf2038f	-0.029542712
54	0x3a61f38e	0.00086193613
55	0xbc925998	-0.017864987
56	0x3d6bc581	0.0575614
57	0xbdb69067	-0.08914261
58	0x3b98405f	0.0046463455
59	0xbb511b59	-0.003190717
60	0x3db2ca2d	0.08729968
61	0x3dec05a0	0.115245104
62	0xbd5feb98	-0.05466804
63	0xbd22c978	-0.039742917
64	0xbd89f8b1	-0.06736887
65	0x3dcc5046	0.099762484
66	0x3d41301d	0.047165025
67	0xbd67bf67	-0.05657902
68	0xbc7cd8c3	-0.015432539
69	0xbda64c7c	-0.08120057
70	0xbd61bf45	-0.05511405
71	0x3b8371b0	0.0040113553
72	0xbd53907d	-0.051651467
73	0xbd48ca27	-0.049020912
74	0xbcb23b2f	-0.021756737
75	0x3b99a967	0.004689384
76	0x3d10f31b	0.035388093
77	0x3c749601	0.014928342
78	0xbc094260	-0.008377641
79	0x3be2143a	0.006899384
80	0x3d8cb5aa	0.06870587
81	0x3d86da9b	0.065846644
82	0xbd1b24e2	-0.03787697
83	0xbde5797b	-0.11204811
84	0x3ce43342	0.027856473
85	0xbd91caf3	-0.071187876
86	0xbd8511dd	-0.06497548
87	0xbc4a64e6	-0.012353158
88	0x3d046f91	0.03233296
89	0x3d8ac8a9	0.06776554
90	0x3d227062	0.039657958
91	0xbd49bdfe	-0.049253456
92	0x3cb68465	0.022279928
93	0xbd985aad	-0.0743917
94	0x3ddadf39	0.106871076
95	0x3d0dd4de	0.034626834
96	0xbd87788b	-0.066147886
97	0xbca8cb66	-0.0206048
98	0x3d1ba359	0.037997577
99	0xbb2cca00	-0.0026365519
100	0xbc4db007	-0.012554175
101	0x3d9db7b7	0.077010565
102	0x3b63f2d1	0.003478218
103	0xbd6fc9ed	-0.05854218
104	0x3d4b4adf	0.04963195
105	0x3d4a11cf	0.04933339
106	0x3ce763bf	0.028245805
107	0x3b90e134	0.0044213776
108	0xbd891040	-0.066925526
109	0x3c32e966	0.010919904
110	0xbd337f50	-0.043822587
111	0xbd0c19df	-0.03420436
112	0xbdd9d528	-0.106363595
113	0xbd4f8d48	-0.050671846
114	0xbb70825c	-0.0036698794
115	0xbc9f3912	-0.019436393
116	0xbc2d1b27	-0.010565556
117	0x3c88b961	0.016689958
118	0x3cc58204	0.024109848
119	0xbd1de707	-0.038550403
120	0x3d59ab30	0.053141773
121	0xbcf4db7f	-0.02988982
122	0x3c31bb5f	0.010847895
123	0x3db55d4a	0.08855684
124	0x3c119939	0.008886629
125	0x3d3c58d8	0.045983166
126	0xbd6f2cfc	-0.05839251
127	0xbc312d83	-0.0108140735
128	0xbd6e8307	-0.058230426
129	0x3d6e9437	0.058246817
130	0x3c645bdf	0.013937919
131	0xbdf1a6fe	-0.11799429
132	0xbb9a7130	-0.0047132
133	0x3dc0eb9b	0.09419938
134	0xbd204d7a	-0.039136387
135	0x3c36a971	0.011148796
136	0x3c66113e	0.014042197
137	0xbbd5ca70	-0.0065243766
138	0xbd4d8548	-0.050175935
139	0xbbdd902e	-0.0067615723
140	0xbd3ae97c	-0.045632824
141	0x3d39d774	0.045371488
142	0xbc093486	-0.008374339
143	0x3d20f29a	0.039293863
144	0xbcb38e19	-0.021918343
145	0xbb8aafad	-0.004232368
146	0xbcddc54b	-0.027071616
147	0xbcf94989	-0.030430572
148	0xbd3cc666	-0.046087645
149	0xbd94706d	-0.07248006
150	0xbd4e819b	-0.05041657
151	0x3d39c1d1	0.045350853
152	0xbd13fcf0	-0.036129892
153	0x3ccef968	0.02526541
154	0x3cb04c3c	0.021520726
155	0x3b6d4e8f	0.0036210155
156	0xbbc8fbf1	-0.0061335494
157	0xbd3d5716	-0.04622563
158	0x3ca3107c	0.019905321
159	0xbd5befab	-0.053695362
160	0xbd4c36de	-0.049857013
161	0x3d882405	0.06647495
162	0x3b9c3992	0.004767605
163	0x3d913512	0.070902005
164	0xbd6ee9b3	-0.05832834
165	0x3da2878b	0.07936009
166	0x3d983172	0.07431306
167	0xbcbda7e5	-0.023151347
168	0x3cbd6690	0.023120195
169	0xbcab02eb	-0.020875415
170	0x3c382be4	0.011240933
171	0x3b879d95	0.0041386583
172	0xbcbd511c	-0.023109965
173	0xbdb3fc74	-0.08788386
174	0xbd5165b0	-0.051122367
175	0x3c4090ba	0.0117532555
176	0x3d0792d6	0.033099018
177	0xbd6d1a16	-0.057886206
178	0xba13b36f	-0.00056343427
179	0x3db29037	0.08718913
180	0xbbb49737	-0.0055111903
181	0xbc35f261	-0.011105151
182	0xbb6109c3	-0.0034338094
183	0xbdbe4093	-0.0928966
184	0x3d5b785a	0.053581573
185	0xbdbb6d6f	-0.09151732
186	0xbd0c3846	-0.034233354
187	0xbdbe871a	-0.09303112
188	0xbdb818c9	-0.089891024
189	0x3d68899c	0.05677186
190	0x3d3161c8	0.043306142
191	0x3c081cd8	0.008307658
192	0xbd88917a	-0.066683725
193	0x3d86af64	0.06576422
194	0xbd68db33	-0.05684967
195	0x3be1a861	0.0068865274
196	0x3d9bcf2d	0.07607875
197	0x3d8549a5	0.06508187
198	0xbde8fd64	-0.113764554
199	0xbced96d5	-0.029002586
200	0x3cc92c58	0.024557278
201	0x3d84a3ad	0.06476531
202	0xbb123ff1	-0.0022315944
203	0xbc8a8a61	-0.016911687
204	0x3da286a0	0.07935834
205	0x3db665c0	0.08906126
206	0x3d9a7d6c	0.075434536
207	0xbd39df16	-0.045378767
208	0xbdbfb072	-0.09359826
209	0x3d155a12	0.03646285
210	0xbdde08c0	-0.10841513
211	0xbd918f5e	-0.07107423
212	0x3ddc68a8	0.10762149
213	0x3d95a515	0.073068775
214	0x3d3fabfd	0.04679488
215	0x356e888e	8.886062e-07
216	0x3cc2133e	0.023690816
217	0xbd3b446a	-0.04571954
218	0x3c50d522	0.012746127
219	0xbcb8ca8b	-0.022557518
220	0xbce88afc	-0.028386585
221	0xbdb94eac	-0.090482086
222	0xbb6a6cb4	-0.0035770359
223	0xbc6d6d46	-0.014491385
224	0xbd2feeca	-0.042952336
225	0xbbb5c88c	-0.0055475887
226	0xbcd7a4d3	-0.026323711
227	0x3d646de4	0.055768862
228	0xbc33261f	-0.010934382
229	0xbd990468	-0.074715436
230	0x3d9ca544	0.076487094
231	0xbb8d248b	-0.004307335
232	0x3c6a5e52	0.014304714
233	0xbc2f1209	-0.010685452
234	0xbd80d859	-0.06291265
235	0x3cc0f94f	0.02355638
236	0xbd51e6fb	-0.05124567
237	0xbc1cbb0e	-0.009566082
238	0x3d9f9be0	0.07793403
239	0x3cd99b1d	0.026563222
240	0x3c9b3d6b	0.018950185
241	0x3d2bc636	0.041937076
242	0x3d8c4030	0.0684818
243	0xbd50d192	-0.05098111
244	0xbd753ce9	-0.05987254
245	0xbdb659df	-0.0890386
246	0xbca22098	-0.019790933
247	0xbc5595dd	-0.0130362185
248	0xbd98a79d	-0.07453845
249	0x3cb53e61	0.022124471
250	0xbdb1fb06	-0.08690457
251	0x3d3cf2ee	0.046130113
252	0xbd9326b1	-0.07185114
253	0xbda9008e	-0.08252059
254	0xbd212ff8	-0.039352387
255	0x3a823618	0.0009934334

model.2.bias f4 [16]
0	0x3bb96da6	0.005658823
1	0xbc429207	-0.011875636
2	0xbc146c8c	-0.009059083
3	0x3cc7e93e	0.02440321
4	0xbcc377be	-0.023860808
5	0x3cff64c9	0.031175988
6	0x3d909fa8	0.07061702
7	0x3d2002aa	0.03906504
8	0xbb8c7d5f	-0.0042874063
9	0xbd249955	-0.04018529
10	0xbc0c3f6e	-0.008560045
11	0x3caa889d	0.020817095
12	0x3da33266	0.07968597
13	0xbc195e62	-0.0093608815
14	0x3d0a38d3	0.033745598
15	0xbcfdbefc	-0.030974858

model.5.weight f4 [32, 16, 3, 3]
0	0xbd266724	-0.040625706
1	0xbd8e6a61	-0.06953884
2	0x3cdd4d93	0.02701453
3	0x3dd7ebfc	0.10543057
4	0x3d287f73	0.04113717
5	0xb7a3c836	-1.9524345e-05
6	0x3d31419e	0.043275468
7	0x3c97524b	0.018471858
8	0xbcda7f28	-0.026671961
9	0xbd33ed6c	-0.043927595
10	0x3c9ebe6e	0.019377913
11	0xbd071ba8	-0.03298536
12	0x3da115b4	0.07865468
13	0x3dad7ff3	0.0847167
14	0xbd6e3c48	-0.058162957
15	0x3d456320	0.048190236
16	0xbc861e0d	-0.016371751
17	0xbb88cdf1	-0.0041749408
18	0xbc9e736f	-0.019342152
19	0xbccf8016	-0.02532963
20	0x3cf71f0b	0.03016617
21	0x3d266891	0.040627066
22	0xbd563587	-0.05229714
23	0x3d8124e3	0.06305864
24	0xbca48fa8	-0.020088032
25	0x3c25bfef	0.010116561
26	0x3d672754	0.05643399
27	0x3d22017f	0.039552208
28	0xbd095c54	-0.033535317
29	0x3d82274b	0.06355151
30	0xbd7caebf	-0.06169009
31	0xbd069a19	-0.032861803
32	0x3cd0012c	0.025391184
33	0xbbc049fd	-0.005868195
34	0xbde519b3	-0.11186542
35	0xbda1892b	-0.07887491
36	0xbd9661ea	-0.073428944
37	0xbcfee0c5	-0.031113038
38	0x3c22553c	0.009908017
39	0xbd9b5bec	-0.07585892
40	0xbda8106e	-0.08206259
41	0xbd8f11e7	-0.069858365
42	0xbd652eb5	-0.055952746
43	0xbd4ec98f	-0.05048519
44	0xbd4a1510	-0.049336493
45	0x3d71f663	0.059072863
46	0xbd0cadb4	-0.034345344
47	0x3d425af5	0.047450025
48	0x3d79dc64	0.061001197
49	0x3d5516a5	0.05202355
50	0x3c17763f	0.009244501
51	0xbd14112f	-0.0361492
52	0xbc3b86ea	-0.01144574
53	0x3bd4d8b8	0.0064955615
54	0x3d947b07	0.07250028
55	0xbd1bc045	-0.03802516
56	0x3cd9082a	0.02649315
57	0xbd863b0b	-0.0655423
58	0x3d00e65f	0.0314697
59	0xbc274d77	-0.01021134
60	0x3ce9deac	0.028548561
61	0x3c60f73e	0.013730822
62	0xbc9b2082	-0.0189364
63	0x3d8013a1	0.06253744
64	0xbd779b84	-0.060451046
65	0x3cdb3415	0.026758233
66	0x3d400601	0.046880726
67	0xbd8daf54	-0.06918207
68	0x3cf4f531	0.029902073
69	0xbd30b9b9	-0.04314587
70	0xbd155a19	-0.036462877
71	0x3ce0450d	0.027376676
72	0xbd373fad	-0.04473846
73	0xbd252773	-0.040320825
74	0x3b5e6025	0.0033931818
75	0x3da2ee0f	0.07955562
76	0x3a9147a1	0.0011083969
77	0x3ca57395	0.020196715
78	0xbc095914	-0.008383054
79	0xbd3e71e7	-0.046495344
80	0xbc062fff	-0.008190154
81	0xbceaee55	-0.028678099
82	0xbd5fa29c	-0.054598436
83	0x3db21ed0	0.08697283
84	0x3baeaab2	0.005330407
85	0xbc7138dd	-0.01472303
86	0xbd0ee0c7	-0.034882333
87	0xbd81a3f8	-0.06330103
88	0xbd0b7fd0	-0.03405744
89	0x3cf93bc6	0.03042401
90	0x3ded2662	0.115795866
91	0x3dd21736	0.102583334
92	0x3d73faf2	0.059565492
93	0xbd7a3719	-0.0610877
94	0xbdd4f384	-0.103980094
95	0xbdca0f18	-0.0986616
96	0xbdaca5c9	-0.084300585
97	0x3d01e713	0.03171451
98	0xbd95a34b	-0.07306536
99	0x3ca6d629	0.020365791
100	0xbdb2a22b	-0.08722337
101	0xbd757226	-0.059923314
102	0x3c8e9519	0.01740508
103	0x3d93212f	0.07184064
104	0x3d6412c2	0.05568195
105	0xbccc1d72	-0.024916384
106	0x3cf1177d	0.029430145
107	0xba90db2a	-0.0011051644
108	0x3cae5d99	0.021284865
109	0xbc2ec508	-0.010667093
110	0xbcf8ad05	-0.03035594
111	0x3d1fc465	0.039005656
112	0x3d5b6d1f	0.053570863
113	0xbcb9a9fc	-0.022664063
114	0x3cdc570d	0.026896978
115	0xbd4bbfaa	-0.049743332
116	0xbd625b3c	-0.05526279
117	0xbd7eb030	-0.062179744
118	0xbd92c73b	-0.071669064
119	0x3d9abb5c	0.07555267
120	0xbd6ef6ac	-0.058340713
121	0xbccfea1d	-0.025380189
122	0x3c5027ca	0.012704799
123	0x3d8fd493	0.07022967
124	0x3d09c9fe	0.0336399
125	0x3d9f319e	0.077731356
126	0x3cb5ebb9	0.022207128
127	0xbd9b983b	-0.07597395
128	0x3bb26607	0.0054442915
129	0xbd608d38	-0.054822177
130	0xb9965b2f	-0.00028678167
131	0xbcbb1817	-0.022838635
132	0x3dfdfdec	0.124019474
133	0x3cbfc479	0.023409115
134	0x3d81caa8	0.06337482
135	0x3c457e48	0.012054034
136	0xbd832a87	-0.06404596
137	0xbdcb4118	-0.09924525
138	0xbc984727	-0.018588616
139	0x3cb04cc4	0.02152098
140	0xbd872c68	-0.06600267
141	0xbd83588b	-0.064133726
142	0x3be3fcd1	0.0069576283
143	0xbd3444b1	-0.04401082
144	0xbd653d76	-0.055966817
145	0xbca0d9f0	-0.01963517
146	0xbb8854cf	-0.0041605006
147	0xbd2fc14e	-0.04290896
148	0xbd879dc1	-0.06621886
149	0xbcbbf803	-0.02294541
150	0xbb8128f2	-0.0039416486
151	0xbd70774b	-0.058707517
152	0xbd1de26c	-0.03854601
153	0x3d40f1e0	0.04710567
154	0x3d1c4221	0.038149003
155	0x3d0d0ad3	0.03443415
156	0x3d52e8e0	0.05149162
157	0xbd6e809d	-0.058228124
158	0x3d3a97aa	0.045554794
159	0xbd60ffcf	-0.054931458
160	0xbd9c05be	-0.07618283
161	0x3c5078d3	0.012724119
162	0xbda81a3f	-0.08208131
163	0xbd1c7960	-0.03820169
164	0x3c485518	0.012227319
165	0x3da45c5c	0.08025429
166	0xbd37208c	-0.044708773
167	0xbd205245	-0.03914096
168	0x3cbb6a7b	0.022877922
169	0x3d2595d2	0.040426083
170	0x3d0310e3	0.031998526
171	0xbc2cc63c	-0.01054531
172	0x3bf324e2	0.0074201683
173	0xbcdd7f6f	-0.027038304
174	0xbb8a9bf0	-0.004230015
175	0xbd39de05	-0.04537775
176	0x3d4646c4	0.04840733
177	0x3d143428	0.036182553
178	0x3bac60da	0.005260569
179	0xbdcd3ff3	-0.10021963
180	0x3d7cd556	0.06172689
181	0xbd3fa9a6	-0.04679265
182	0x3ca10131	0.019653888
183	0xbda1d468	-0.079018414
184	0xbc8afbfd	-0.01696586
185	0xbdb99a40	-0.09062624
186	0xbc5b470b	-0.013383637
187	0x3d86ea9a	0.065877154
188	0xbdaea25c	-0.08527061
189	0x3da3b1ca	0.07992895
190	0x39b3ecd3	0.00034317988
191	0x3c2a125a	0.010380352
192	0xbd96ca28	-0.07362777
193	0x3d6c52b1	0.05769605
194	0xbd1f86e5	-0.038947005
195	0x3b34a391	0.0027563313
196	0xbce39dfc	-0.027785294
197	0xbdd1ae0f	-0.10238277
198	0xbd86de4a	-0.06585367
199	0x3c4541cc	0.012039613
200	0xbc832701	-0.01600981
201	0x3d36e0ac	0.044647858
202	0x38c1cfd7	9.24167e-05
203	0x3d8cd975	0.06877414
204	0xbb09037b	-0.0020906616
205	0xbc9218d9	-0.017834114
206	0x3d85746c	0.06516346
207	0x3ce0ab12	0.027425323
208	0xbb7793a5	-0.0037777212
209	0xbd9f7700	-0.07786369
210	0x3cfb736d	0.030694688
211	0xbba2ea20	-0.0049717575
212	0xbcce4254	-0.025178112
213	0x3ca6ecbc	0.020376556
214	0xbca632ec	-0.020287953
215	0xbdb1eb42	-0.0868745
216	0x3d38139e	0.044940583
217	0x3d0e5130	0.034745395
218	0x3d90ea37	0.07075923
219	0x3c8c0853	0.017093813
220	0x3c8c97b1	0.017162176
221	0x3d9622d1	0.073308595
222	0x3d9101ad	0.07080398
223	0x3ce4adfa	0.02791499
224	0xbc54b9a5	-0.012983714
225	0x3da4a9e1	0.08040214
226	0x3cfe3e5b	0.031035593
227	0xbd5c5a45	-0.053797025
228	0xbcc53ba0	-0.024076283
229	0x3d8b7f51	0.06811393
230	0xba1b780a	-0.0005930668
231	0xbc96c095	-0.018402377
232	0xbcf019c6	-0.029309165
233	0xbda9f825	-0.08299283
234	0xbd888b34	-0.06667176
235	0xbdae2773	-0.08503618
236	0xbd9101eb	-0.07080444
237	0x3d1eb6d2	0.03874857
238	0xbc80e194	-0.015732564
239	0xbd599e9b	-0.053129774
240	0x3c1f63f4	0.0097284205
241	0x3c17848e	0.009247912
242	0xbd751a93	-0.059839796
243	0x3da3a83b	0.07991072
244	0x3d4a50de	0.049393527
245	0x3d08eaee	0.03342717
246	0x3dc3970c	0.09550294
247	0x3b3de85e	0.0028977613
248	0xbd880b80	-0.066428185
249	0xbde3e9cb	-0.11128577
250	0xbd9bea9a	-0.07613106
251	0xbd81e7e7	-0.0634306
252	0x3d3d886d	0.046272684
253	0xbc979cb8	-0.018507347
254	0x3c2448aa	0.01002709
255	0x3b0c20df	0.0021381897

model.5.bias f4 [32]
0	0xbdab67a5	-0.08369378
1	0xbd2bcc9a	-0.04194317
2	0x3d85aa87	0.06526666
3	0xbd22462c	-0.039617702
4	0xbd10cf97	-0.035354223
5	0xbc42f8f4	-0.011900175
6	0x3d2fd64e	0.042928986
7	0x3d85db8d	0.065360166
8	0xbd8c3a87	-0.06847101
9	0xb9c319f9	-0.0003721265
10	0xbd4e02d2	-0.05029566
11	0xbd936281	-0.071965225
12	0xbc497180	-0.012295127
13	0x3d234b4e	0.039866738
14	0xbd569872	-0.052391477
15	0x3d68028c	0.056643054
16	0xbd3deb2e	-0.046366863
17	0xbd6e4ac2	-0.058176763
18	0x3c3af7a5	0.011411582
19	0x3d5c2aaa	0.053751625
20	0x3cc67c1e	0.024229106
21	0x3ddaccd5	0.106836
22	0x3d1ca8b3	0.03824682
23	0x3d905cd9	0.07048959
24	0xbd12907e	-0.03578233
25	0x3d690303	0.056887638
26	0x3d918f57	0.07107418
27	0xbda90085	-0.08252052
28	0x3c4fe18e	0.012688054
29	0x3da9d12c	0.082918495
30	0x3da8f84b	0.08250483
31	0x3da06cf9	0.07833285

model.7.weight f4 [32, 32, 3, 3]
0	0x3ca31742	0.019908551
1	0xba7f3d67	-0.00097366277
2	0x3c4e0173	0.012573588
3	0x3c32c0c6	0.010910219
4	0x3d109fdc	0.035308704
5	0x3d6142e0	0.054995418
6	0x3d2825b7	0.041051593
7	0xbd21301c	-0.03935252
8	0xbcb7c0e2	-0.02243084
9	0xbac6c936	-0.0015166167
10	0xbd81f8bb	-0.0634627
11	0xbcb5ec49	-0.022207396
12	0xbb02ea3b	-0.0019976038
13	0xbbf50744	-0.007477673
14	0x3d4281c4	0.047487035
15	0xbc871fc3	-0.016494637
16	0xbb403117	-0.0029326135
17	0xbd8918da	-0.06694193
18	0xbb2a0611	-0.0025943557
19	0xbdae9feb	-0.08526596
20	0xbc6cf291	-0.014462129
21	0xbcfc7a71	-0.030820103
22	0xbd323601	-0.043508533
23	0xbd356c34	-0.044292644
24	0x3c98e1fc	0.018662445
25	0x3cdb0221	0.026734414
26	0x3d16dcd0	0.036831677
27	0xbd94db88	-0.07268435
28	0xbc48f489	-0.012265333
29	0x3d341190	0.04396206
30	0xbccf631e	-0.025315817
31	0x3d3700e0	0.04467857
32	0xbc886bf3	-0.016653037
33	0xbd00c22f	-0.031435188
34	0x3d5095ce	0.050924115
35	0x3d410200	0.047121048
36	0x3cb96bca	0.022634406
37	0xbd5133da	-0.05107484
38	0xbd7f2347	-0.062289502
39	0xbd1a34c0	-0.037647963
40	0x3c92ef43	0.017936355
41	0xbc80e9d8	-0.015736505
42	0x3bf24a43	0.0073941066
43	0x3ccd4b49	0.025060313
44	0xbdb88940	-0.09010553
45	0xbd6b7406	-0.057483695
46	0xbcc917ba	-0.024547447
47	0xbbf17f92	-0.007369944
48	0xbca18a6b	-0.019719323
49	0x3903dcff	0.00012575461
50	0xbcc25d55	-0.023726145
51	0xbd51abf2	-0.05118937
52	0xbd87bae2	-0.06627442
53	0x3cba8f7a	0.022773493
54	0x3c9b01c2	0.018921737
55	0xbca03b72	-0.019559596
56	0xbbea3f50	-0.0071486607
57	0x3cbf0fed	0.023323024
58	0x3d3f42b9	0.04669449
59	0xbc8d1b9a	-0.017225076
60	0x3ca51587	0.020151867
61	0xbd87ee55	-0.06637255
62	0xbce17d9d	-0.027525717
63	0xbd3730c5	-0.044724245
64	0x3c3c749c	0.011502411
65	0xbca1a0d3	-0.019730007
66	0xbb1833b3	-0.0023224175
67	0xbceb68ac	-0.028736435
68	0x3d141b14	0.036158636
69	0xbd9948ee	-0.07484613
70	0xbd3f80f2	-0.04675383
71	0xbba6f0df	-0.005094632
72	0xbd60b309	-0.05485824
73	0xbcac9086	-0.021065008
74	0x3d043374	0.032275632
75	0x3d33f12a	0.043931164
76	0x3cc064a0	0.023485482
77	0xbd0979b1	-0.03356332
78	0x3c8ebcbc	0.01742398
79	0x3cc1a5f3	0.023638701
80	0xbd33c1ba	-0.043885924
81	0x3a387cef	0.00070376595
82	0xbc400083	-0.011718872
83	0xbd23af04	-0.03996183
84	0xbd95f2d7	-0.07321709
85	0x3d07a5c9	0.03311709
86	0xbd746226	-0.059663914
87	0xbcb4c00b	-0.02206423
88	0xbc4fee08	-0.012691028
89	0x3b040d99	0.0020149706
90	0xba3ca6fb	-0.0007196513
91	0xbb7b4597	-0.003834104
92	0x3d3498de	0.044091098
93	0x3b9a7137	0.0047132033
94	0x3d493b65	0.04912891
95	0xbc6d31dc	-0.014477219
96	0x3d07ca29	0.03315178
97	0xbd5df31c	-0.054186925
98	0x3aa73795	0.0012757654
99	0xbb8bd04e	-0.004266775
100	0x3cb0f55a	0.021601368
101	0x3b072bd8	0.0020625498
102	0xb9b57ac5	-0.0003461448
103	0xbd499573	-0.04921479
104	0xbc800dfc	-0.015631668
105	0x3ca8b8bf	0.020595906
106	0xbd4805aa	-0.048833527
107	0x3bc09713	0.0058773845
108	0x3d0a5e3c	0.033781275
109	0xbd12229f	-0.03567755
110	0xbd483e7d	-0.04888772
111	0xbd7a532d	-0.06111448
112	0xbc844bdd	-0.016149456
113	0x3cd5637c	0.026048414
114	0x3d1d323b	0.03837798
115	0xbc5a4254	-0.013321478
116	0x3c8c3b41	0.017118098
117	0x3c91ab5d	0.017781908
118	0x3ad9ec81	0.001662627
119	0x3cdf6d06	0.027273666
120	0xbcbb3d2b	-0.022856316
121	0x3b009b5b	0.001962385
122	0xbd5e32d5	-0.054247696
123	0xbcbfa2c9	-0.023393052
124	0x3c8631d5	0.016381184
125	0xbc6ce868	-0.014459707
126	0xbd28b50e	-0.041188292
127	0xbd21f437	-0.039539542
128	0x3d2dce71	0.042433206
129	0x3bd5a358	0.0065197162
130	0x3bcfe340	0.006344229
131	0xbc31d0ca	-0.010853002
132	0xbc4ab284	-0.012371663
133	0xbd346842	-0.04404474
134	0x3be0da2c	0.0068619456
135	0xbc653748	-0.013990231
136	0x3cd9abdc	0.026571207
137	0xbd086616	-0.03330048
138	0xbce652bf	-0.028115628
139	0xbd76b77c	-0.060233578
140	0xbd6dc3b5	-0.05804797
141	0xbd1d00b7	-0.03833076
142	0x3c88acfa	0.016684044
143	0xbbabfda2	-0.0052487412
144	0xbd931f71	-0.07183731
145	0xbce2ec00	-0.027700424
146	0xbcbf3e46	-0.023345124
147	0x3c658fb3	0.014011311
148	0x3cef598b	0.029217502
149	0x3c6a8c0b	0.014315615
150	0x3c7b2847	0.015329427
151	0x3c67bdea	0.0141444
152	0xbc827c9a	-0.015928555
153	0xbc334c35	-0.010943462
154	0xbccc6729	-0.024951534
155	0xbd129f19	-0.03579626
156	0x3c31da47	0.010855264
157	0xbcdf8795	-0.02728633
158	0xbc967baa	-0.018369514
159	0x3d2da00b	0.042388957
160	0xbcbd8cac	-0.023138367
161	0xbca006f8	-0.019534573
162	0x3d2acbbe	0.04169821
163	0x3bb86f63	0.0056285127
164	0x3cc7097e	0.024296518
165	0xbc08a0e7	-0.008339143
166	0x3b4cf608	0.0031274576
167	0x3cd762b1	0.026292177
168	0xbcddae96	-0.027060788
169	0xbd7ef2a5	-0.062243123
170	0xbd3f6903	-0.046731006
171	0xbd83c343	-0.064337276
172	0xbcf6761a	-0.030085612
173	0x3d1b4c46	0.037914537
174	0x3bc8ebcf	0.006131626
175	0xbcc1ffe3	-0.023681587
176	0xbcc6f8a8	-0.02428849
177	0xbcbd0573	-0.023073887
178	0x3b231040	0.0024881512
179	0x3d1abcb2	0.03777761
180	0xbdac550a	-0.084146574
181	0xbd63d178	-0.055619687
182	0x3c2e458a	0.010636697
183	0xbd481b7e	-0.048854344
184	0xbd33ca26	-0.043893956
185	0xbc27d4c8	-0.010243602
186	0x3d25ca29	0.040475998
187	0xbd0df413	-0.034656595
188	0x3d0018c5	0.031273622
189	0xbcd97a2d	-0.026547516
190	0x3d241b74	0.040065244
191	0xbc21ce25	-0.009875809
192	0xbcf3823a	-0.029725183
193	0x3c3327ea	0.010934809
194	0x3c8ef7d5	0.01745216
195	0x3c60e419	0.013726258
196	0xbd5a945c	-0.053364143
197	0x3d0b132d	0.033953834
198	0xbd20de55	-0.039274532
199	0xbbd59947	-0.006518516
200	0x3ce3bd3a	0.027800191
201	0x3c1dc75a	0.009630049
202	0x3cf9158b	0.03040578
203	0xbd3d6c1b	-0.046245676
204	0xbd2e2d92	-0.042523928
205	0xbd46c902	-0.04853154
206	0x3d2c939b	0.042132955
207	0x3cd657c8	0.026164904
208	0x3d38a989	0.045083556
209	0xbd270932	-0.040780254
210	0x3d311ff8	0.04324338
211	0xbc560c69	-0.013064482
212	0xbd76872d	-0.060187507
213	0xbd9abfba	-0.075561
214	0xbd4ceae1	-0.050028685
215	0x3d028569	0.03186551
216	0x3aeef63a	0.001823134
217	0xbd42e953	-0.047585797
218	0x3d39f42a	0.04539887
219	0xbc49fd06	-0.012328392
220	0xbd937947	-0.07200866
221	0xbdb5d9cd	-0.08879433
222	0xbd84c168	-0.06482202
223	0xbdba7fa8	-0.0910638
224	0x3c1ad279	0.009449595
225	0xbd91dbf5	-0.071220316
226	0xbd37001f	-0.04467785
227	0x3d1a07b8	0.037605017
228	0xbd5d0a33	-0.053964805
229	0x3d43435b	0.047671657
230	0x3d1c9272	0.0382256
231	0xbd02c81a	-0.031929113
232	0xbd13e137	-0.036103453
233	0x3ca1c067	0.019745065
234	0x3d205540	0.0391438
235	0xbc181c9d	-0.009284166
236	0x3d17e4f5	0.037083585
237	0xbd71a3b4	-0.05899401
238	0x3baef7f7	0.0053396183
239	0xbd975398	-0.07388991
240	0xbb8c9231	-0.0042898883
241	0x3ca0e5f9	0.01964091
242	0xbd022f30	-0.031783283
243	0xbd6f8125	-0.05847277
244	0xbd8e5274	-0.069493204
245	0xbc2a0830	-0.010377929
246	0xbd4b3881	-0.049614433
247	0x3d4b0470	0.04956478
248	0xbc648653	-0.013948041
249	0x3d18696a	0.037209906
250	0x3bb57936	0.005538131
251	0xbd49c9eb	-0.04926483
252	0x3d77b921	0.060479287
253	0x3d7ab479	0.06120727
254	0x3c75698c	0.014978778
255	0xbd4d53cf	-0.050128754

model.7.bias f4 [32]
0	0xbc7387b6	-0.014863899
1	0xbd209dee	-0.039213113
2	0x3c42cda3	0.011889848
3	0xbd444c4b	-0.04792432
4	0x3ba328d5	0.004979233
5	0xbcfb5b6c	-0.030683242
6	0xbceee757	-0.029163046
7	0x3ca84004	0.020538338
8	0xbbb1fad1	-0.005431511
9	0x3cebee1a	0.02880006
10	0xbb500ac5	-0.00317447
11	0xbc7a6cbe	-0.015284715
12	0xbd6bae23	-0.057539117
13	0xbd6219d9	-0.05520043
14	0x3bec8e82	0.0072191367
15	0x372a0b87	1.01354735e-05
16	0x39aea177	0.00033308167
17	0x3c7b6e53	0.015346128
18	0xbd091bd1	-0.033473793
19	0xbcf95ef7	-0.03044079
20	0x3c4c4636	0.0124679115
21	0x3c1f5d7a	0.009726876
22	0x3b550c31	0.0032508487
23	0xbd67223b	-0.05642913
24	0xbc2c6ed8	-0.010524474
25	0xbba501dc	-0.005035622
26	0x3d051a2e	0.03249567
27	0xbd5b9b0c	-0.05361466
28	0x3d56636c	0.05234091
29	0xbd1d1dfb	-0.03835867
30	0x3c85a508	0.016314045
31	0x3b80ae60	0.003927037

model.11.weight f4 [10, 1568]
0	0x3d116726	0.03549876
1	0x3c4834e4	0.012219641
2	0xbceb6766	-0.028735828
3	0xbc9ae6ee	-0.018908944
4	0xbd30e1d5	-0.04318412
5	0xbd030d93	-0.031995367
6	0x3c380479	0.011231535
7	0xbb54c03d	-0.0032463216
8	0x3a772e23	0.0009429177
9	0x3c3231fa	0.010876173
10	0x3a8704bc	0.0010301094
11	0xbbf1e4ba	-0.0073820027
12	0xbc96d3d5	-0.018411556
13	0x3b91f3bb	0.0044541038
14	0x3c6f1e6b	0.014594655
15	0xbcee7c32	-0.029111955
16	0xbd0d6f31	-0.03452987
17	0xbca96545	-0.020678172
18	0xbca17bdf	-0.019712387
19	0xbb063fe3	-0.0020484857
20	0xbc064701	-0.00819564
21	0xbcb551e4	-0.022133775
22	0xbcb226b1	-0.021746965
23	0xbcde3252	-0.027123604
24	0xbcf67ce5	-0.030088851
25	0xba883bcd	-0.0010393799
26	0xbc446248	-0.011986323
27	0x3b809308	0.0039237775
28	0xbc3c32dd	-0.011486736
29	0xbc2ba9cb	-0.0104774935
30	0xbc84c14a	-0.016205449
31	0x3d141946	0.036156915
32	0xbc5a7f01	-0.013335944
33	0x3cc4cd71	0.024023743
34	0x3c5e74a4	0.013577614
35	0xbba4a56c	-0.0050246026
36	0xb9ab31ca	-0.00032652757
37	0x3d080812	0.03321082
38	0x3c3bd6fc	0.0114648305
39	0x3c3cd5a6	0.011525547
40	0xbaff7cb3	-0.0019492119
41	0x3ba20410	0.004944332
42	0xbcca1417	-0.024667783
43	0x3c0f9f45	0.008766
44	0xbbd9fb86	-0.0066522984
45	0x3cb397b3	0.021922922
46	0x3c488f33	0.012241173
47	0xbc5e2858	-0.013559423
48	0xbc75038a	-0.014954457
49	0x3c24aa4e	0.010050369
50	0xbcaa1285	-0.020760784
51	0xbb5cc541	-0.0033686908
52	0x3bc82da1	0.006108955
53	0x3b90cd03	0.0044189706
54	0xbc8d98da	-0.0172848
55	0xbce41b46	-0.027845036
56	0xbbb74265	-0.0055926316
57	0x3c32ab9b	0.010905172
58	0x3be9238f	0.0071148346
59	0x3a407004	0.00073409104
60	0xbb9d1d07	-0.00479472
61	0xbbc43a6b	-0.0059884093
62	0xbc09bdd3	-0.008407074
63	0x3cb922f7	0.02259968
64	0xba60a79d	-0.0008569898
65	0x3c322165	0.01087222
66	0xbc68cea7	-0.014209426
67	0x3ca4fd42	0.020140294
68	0xbc9e1da2	-0.01930124
69	0x3ceae9e3	0.028675979
70	0x3c3eec02	0.011652948
71	0xbbd3d980	-0.006465137
72	0xbcf47ee4	-0.029845662
73	0xbc8dcf4d	-0.017310763
74	0x3b309d7d	0.002694934
75	0xbb680551	-0.003540356
76	0xbba7c2e5	-0.005119669
77	0x3a882cf5	0.0010389375
78	0x3c0532b6	0.008129766
79	0xbd0d7bff	-0.03454208
80	0x3bf8dd4a	0.007594739
81	0xbc8fa72e	-0.017535772
82	0xbcdc3287	-0.026879562
83	0x3c68c270	0.014206514
84	0x3a80d2da	0.0009828464
85	0xbb8500f3	-0.004058951
86	0xba1ee224	-0.0006060919
87	0x3d1abaaf	0.03777569
88	0x3d0b8be3	0.034068953
89	0x3b47654d	0.003042537
90	0x3b22473a	0.0024761693
91	0x3c7d6a87	0.015467293
92	0x3a0421cd	0.0005040437
93	0xbc89263f	-0.01674187
94	0x3bc58196	0.0060274107
95	0xbd15144c	-0.03639631
96	0x3c363d1b	0.011122967
97	0xbc53f08e	-0.012935771
98	0xbcbb76bc	-0.022883765
99	0x3b964b60	0.004586622
100	0xbcd39b69	-0.025830941
101	0xbc3d1888	-0.011541493
102	0xbb6507ec	-0.0034947349
103	0x3d076225	0.033052582
104	0x3b21f278	0.0024711173
105	0xbce9a759	-0.02852218
106	0xbd30def1	-0.043181363
107	0xbd288153	-0.04113896
108	0x3c9b5126	0.018959593
109	0x3ca200c8	0.019775763
110	0x3cb3ac12	0.021932635
111	0xbc4cd710	-0.012502447
112	0xbb93b77b	-0.0045079566
113	0xbcb06ba7	-0.021535708
114	0xbd03239e	-0.03201639
115	0xbcbd45b3	-0.023104524
116	0xbcd382e9	-0.025819259
117	0x3a4eee80	0.00078938156
118	0x3bdfc016	0.0068283184
119	0xbcd7fbdf	-0.026365219
120	0xbb096fe8	-0.0020971242
121	0xbd0a9b25	-0.033839364
122	0xbc68f78b	-0.014219175
123	0x3cdec93b	0.027195564
124	0xbc8c9f39	-0.017165767
125	0xbc449cec	-0.012000304
126	0x3c8a1188	0.016854063
127	0x3c66080d	0.014040005
128	0xbc00ec9c	-0.007868912
129	0xbc8684a6	-0.016420674
130	0xbc900fa5	-0.017585585
131	0xbc6a4677	-0.014299027
132	0xbca1d594	-0.019755162
133	0xbd184e03	-0.037183773
134	0xb915369c	-0.00014230091
135	0x3cb01070	0.021492213
136	0xbb90c066	-0.004417467
137	0x393325f6	0.00017084912
138	0xbc4d2b15	-0.012522479
139	0x3cafbe47	0.021453036
140	0xbbe8111f	-0.007082119
141	0xbb2d95c9	-0.0026486984
142	0xbb9fc701	-0.004876018
143	0x3cec1001	0.028816225
144	0xbc4c0da1	-0.012454421
145	0x3b813e9f	0.0039442326
146	0x3c6e4238	0.014542155
147	0x3b966a3a	0.0045903
148	0xba403690	-0.0007332349
149	0x3ba0179a	0.004885626
150	0xba7c60e8	-0.0009627477
151	0x3c12f8b5	0.008970429
152	0xbc4fc9a4	-0.012682352
153	0x3c1c7450	0.009549215
154	0x3b7782df	0.0037767214
155	0xbc881513	-0.016611611
156	0x3bd9c7b7	0.0066461223
157	0xbc2732f3	-0.010205018
158	0x3b14c7ae	0.0022702026
159	0xbc50d80d	-0.012746823
160	0xbc9091f2	-0.017647717
161	0xbc8233e5	-0.015893886
162	0xbc4c51d8	-0.012470685
163	0xbb915a3f	-0.004435807
164	0xbc516e07	-0.01278258
165	0x3c68dddf	0.014213054
166	0x3c9d7b2f	0.019223778
167	0xbc6eedd0	-0.014583066
168	0x3c59adf8	0.013286106
169	0x3c8454ea	0.016153771
170	0xbc700477	-0.014649502
171	0xbc15d06d	-0.009143931
172	0x3c37466b	0.011186223
173	0xbc9a9d78	-0.018873915
174	0xbc07d310	-0.008290067
175	0x3bf49cd7	0.007464986
176	0xbb19a3f0	-0.0023443662
177	0xbca95f4b	-0.020675322
178	0xbc7a5c7b	-0.015280838
179	0x3c398115	0.011322279
180	0x3c8bd165	0.01706762
181	0x3d0895cc	0.033345982
182	0xbc933f6c	-0.017974578
183	0xbc9c875c	-0.019107513
184	0xbc809fe4	-0.015701242
185	0x3c6b6ccc	0.014369201
186	0x3cb9f371	0.02269909
187	0x3cb0acf4	0.021566845
188	0x3d042acd	0.03226738
189	0x3cd74e67	0.026282502
190	0x3bd4198f	0.0064727734
191	0xba9572a4	-0.0011401963
192	0xbc20ece5	-0.009822105
193	0x3ad23b62	0.0016039426
194	0x39816768	0.0002468184
195	0x3c7bb200	0.015362263
196	0xbd2b865d	-0.041876186
197	0xbc60444b	-0.013688157
198	0xbc648fca	-0.013950298
199	0xbc055102	-0.00813699
200	0xbd3041ad	-0.043031383
201	0xbd072df5	-0.033002812
202	0xbcf6b11c	-0.03011375
203	0xbcf19782	-0.02949119
204	0xbc3101e5	-0.010803674
205	0xbcd3142f	-0.02576646
206	0xbc7d1104	-0.015445951
207	0x3cb2d8e9	0.021831946
208	0xbcb28c20	-0.021795332
209	0xbcacee6a	-0.021109778
210	0x3c097f60	0.008392185
211	0xbc8cd819	-0.017192887
212	0x3c0606f2	0.008180367
213	0xbc13f7bf	-0.009031235
214	0xbc700f4c	-0.014652085
215	0x3c699a58	0.01425799
216	0xbc4316b8	-0.011907272
217	0x3b3e0d0a	0.002899947
218	0xb973dadf	-0.00023255822
219	0xbb859a2b	-0.004077216
220	0xbd1a4a9e	-0.037668817
221	0x3cf5f828	0.030025557
222	0x3c4a1096	0.012333056
223	0xbcc08fe5	-0.023506114
224	0x3b8a2833	0.004216218
225	0xbab49dbd	-0.001377992
226	0xbc76cbe2	-0.015063258
227	0xbca37cb1	-0.019956918
228	0xbbca40ba	-0.006172267
229	0x3ce2daa5	0.027692148
230	0xbbdfdfd6	-0.0068321032
231	0xbc300ffb	-0.010745998
232	0x3c167638	0.009183459
233	0xbbecbfbb	-0.0072250045
234	0x3aef2c36	0.0018247429
235	0xbc38f6c9	-0.011289307
236	0xbc36a21b	-0.011147047
237	0x3ba20eac	0.0049455967
238	0xbbccb789	-0.006247465
239	0x3c74a33b	0.014931495
240	0xbbe33f0e	-0.006935007
241	0x3ab227f0	0.0013592225
242	0xbd9815a7	-0.07426005
243	0xbd982f6b	-0.07430919
244	0x3af842e5	0.0018940835
245	0x3c73cf55	0.014880975
246	0x3c258054	0.010101397
247	0xbbf0a039	-0.007343319
248	0xbc972f8a	-0.018455286
249	0xbc037f3f	-0.008025943
250	0xbbb4b865	-0.0055151456
251	0x3c15b894	0.009138245
252	0x3be9cc85	0.0071349763
253	0x3b8ac8ce	0.0042353636
254	0xbcc4f949	-0.02404465
255	0x3bcc3e00	0.006232977

model.11.bias f4 [10]
0	0xba9a9415	-0.00117934
1	0x3bfccfe9	0.0077152145
2	0xbce17209	-0.027520197
3	0x3b05b590	0.002040241
4	0xbca52cd7	-0.020162983
5	0xbb8c3b4b	-0.004279529
6	0x3a48e638	0.00076637
7	0x3bf86095	0.007579873
8	0x3c284f89	0.010272869
9	0x383eb641	4.5469267e-05
